TensorFlowPC/saved_model/model.tflite (tflite, 925932 bytes, 48 tensors)

based_model/cnn/batch_normalization/FusedBatchNormV3/ReadVariableOp f4 [32]
0.0 0.0 0.0 0.0 0.0 0.0 0.0 0.0
0.0 0.0 0.0 0.0 0.0 0.0 0.0 0.0
0.0 0.0 0.0 0.0 0.0 0.0 0.0 0.0
0.0 0.0 0.0 0.0 0.0 0.0 0.0 0.0
00000000: 0000 0000 0000 0000 0000 0000 0000 0000
00000010: 0000 0000 0000 0000 0000 0000 0000 0000
00000020: 0000 0000 0000 0000 0000 0000 0000 0000
00000030: 0000 0000 0000 0000 0000 0000 0000 0000
00000040: 0000 0000 0000 0000 0000 0000 0000 0000
00000050: 0000 0000 0000 0000 0000 0000 0000 0000
00000060: 0000 0000 0000 0000 0000 0000 0000 0000
00000070: 0000 0000 0000 0000 0000 0000 0000 0000

based_model/cnn/batch_normalization_1/FusedBatchNormV3/ReadVariableOp f4 [64]
0.0 0.0 0.0 0.0 0.0 0.0 0.0 0.0
0.0 0.0 0.0 0.0 0.0 0.0 0.0 0.0
0.0 0.0 0.0 0.0 0.0 0.0 0.0 0.0
0.0 0.0 0.0 0.0 0.0 0.0 0.0 0.0
0.0 0.0 0.0 0.0 0.0 0.0 0.0 0.0
0.0 0.0 0.0 0.0 0.0 0.0 0.0 0.0
0.0 0.0 0.0 0.0 0.0 0.0 0.0 0.0
0.0 0.0 0.0 0.0 0.0 0.0 0.0 0.0
00000000: 0000 0000 0000 0000 0000 0000 0000 0000
00000010: 0000 0000 0000 0000 0000 0000 0000 0000
00000020: 0000 0000 0000 0000 0000 0000 0000 0000
00000030: 0000 0000 0000 0000 0000 0000 0000 0000
00000040: 0000 0000 0000 0000 0000 0000 0000 0000
00000050: 0000 0000 0000 0000 0000 0000 0000 0000
00000060: 0000 0000 0000 0000 0000 0000 0000 0000
00000070: 0000 0000 0000 0000 0000 0000 0000 0000
00000080: 0000 0000 0000 0000 0000 0000 0000 0000
00000090: 0000 0000 0000 0000 0000 0000 0000 0000
000000a0: 0000 0000 0000 0000 0000 0000 0000 0000
000000b0: 0000 0000 0000 0000 0000 0000 0000 0000
000000c0: 0000 0000 0000 0000 0000 0000 0000 0000
000000d0: 0000 0000 0000 0000 0000 0000 0000 0000
000000e0: 0000 0000 0000 0000 0000 0000 0000 0000
000000f0: 0000 0000 0000 0000 0000 0000 0000 0000

based_model/cnn/batch_normalization/FusedBatchNormV3 f4 [32]
0.99950033 0.99950033 0.99950033 0.99950033 0.99950033 0.99950033 0.99950033 0.99950033
0.99950033 0.99950033 0.99950033 0.99950033 0.99950033 0.99950033 0.99950033 0.99950033
0.99950033 0.99950033 0.99950033 0.99950033 0.99950033 0.99950033 0.99950033 0.99950033
0.99950033 0.99950033 0.99950033 0.99950033 0.99950033 0.99950033 0.99950033 0.99950033
00000000: 41df 7f3f 41df 7f3f 41df 7f3f 41df 7f3f
00000010: 41df 7f3f 41df 7f3f 41df 7f3f 41df 7f3f
00000020: 41df 7f3f 41df 7f3f 41df 7f3f 41df 7f3f
00000030: 41df 7f3f 41df 7f3f 41df 7f3f 41df 7f3f
00000040: 41df 7f3f 41df 7f3f 41df 7f3f 41df 7f3f
00000050: 41df 7f3f 41df 7f3f 41df 7f3f 41df 7f3f
00000060: 41df 7f3f 41df 7f3f 41df 7f3f 41df 7f3f
00000070: 41df 7f3f 41df 7f3f 41df 7f3f 41df 7f3f

based_model/cnn/batch_normalization_1/FusedBatchNormV3 f4 [64]
0.99950033 0.99950033 0.99950033 0.99950033 0.99950033 0.99950033 0.99950033 0.99950033
0.99950033 0.99950033 0.99950033 0.99950033 0.99950033 0.99950033 0.99950033 0.99950033
0.99950033 0.99950033 0.99950033 0.99950033 0.99950033 0.99950033 0.99950033 0.99950033
0.99950033 0.99950033 0.99950033 0.99950033 0.99950033 0.99950033 0.99950033 0.99950033
0.99950033 0.99950033 0.99950033 0.99950033 0.99950033 0.99950033 0.99950033 0.99950033
0.99950033 0.99950033 0.99950033 0.99950033 0.99950033 0.99950033 0.99950033 0.99950033
0.99950033 0.99950033 0.99950033 0.99950033 0.99950033 0.99950033 0.99950033 0.99950033
0.99950033 0.99950033 0.99950033 0.99950033 0.99950033 0.99950033 0.99950033 0.99950033
00000000: 41df 7f3f 41df 7f3f 41df 7f3f 41df 7f3f
00000010: 41df 7f3f 41df 7f3f 41df 7f3f 41df 7f3f
00000020: 41df 7f3f 41df 7f3f 41df 7f3f 41df 7f3f
00000030: 41df 7f3f 41df 7f3f 41df 7f3f 41df 7f3f
00000040: 41df 7f3f 41df 7f3f 41df 7f3f 41df 7f3f
00000050: 41df 7f3f 41df 7f3f 41df 7f3f 41df 7f3f
00000060: 41df 7f3f 41df 7f3f 41df 7f3f 41df 7f3f
00000070: 41df 7f3f 41df 7f3f 41df 7f3f 41df 7f3f
00000080: 41df 7f3f 41df 7f3f 41df 7f3f 41df 7f3f
00000090: 41df 7f3f 41df 7f3f 41df 7f3f 41df 7f3f
000000a0: 41df 7f3f 41df 7f3f 41df 7f3f 41df 7f3f
000000b0: 41df 7f3f 41df 7f3f 41df 7f3f 41df 7f3f
000000c0: 41df 7f3f 41df 7f3f 41df 7f3f 41df 7f3f
000000d0: 41df 7f3f 41df 7f3f 41df 7f3f 41df 7f3f
000000e0: 41df 7f3f 41df 7f3f 41df 7f3f 41df 7f3f
000000f0: 41df 7f3f 41df 7f3f 41df 7f3f 41df 7f3f

based_model/cnn/batch_normalization/FusedBatchNormV3/ReadVariableOp1 f4 [32]
0.0 0.0 0.0 0.0 0.0 0.0 0.0 0.0
0.0 0.0 0.0 0.0 0.0 0.0 0.0 0.0
0.0 0.0 0.0 0.0 0.0 0.0 0.0 0.0
0.0 0.0 0.0 0.0 0.0 0.0 0.0 0.0
00000000: 0000 0000 0000 0000 0000 0000 0000 0000
00000010: 0000 0000 0000 0000 0000 0000 0000 0000
00000020: 0000 0000 0000 0000 0000 0000 0000 0000
00000030: 0000 0000 0000 0000 0000 0000 0000 0000
00000040: 0000 0000 0000 0000 0000 0000 0000 0000
00000050: 0000 0000 0000 0000 0000 0000 0000 0000
00000060: 0000 0000 0000 0000 0000 0000 0000 0000
00000070: 0000 0000 0000 0000 0000 0000 0000 0000

based_model/cnn/batch_normalization_1/FusedBatchNormV3/ReadVariableOp1 f4 [64]
0.0 0.0 0.0 0.0 0.0 0.0 0.0 0.0
0.0 0.0 0.0 0.0 0.0 0.0 0.0 0.0
0.0 0.0 0.0 0.0 0.0 0.0 0.0 0.0
0.0 0.0 0.0 0.0 0.0 0.0 0.0 0.0
0.0 0.0 0.0 0.0 0.0 0.0 0.0 0.0
0.0 0.0 0.0 0.0 0.0 0.0 0.0 0.0
0.0 0.0 0.0 0.0 0.0 0.0 0.0 0.0
0.0 0.0 0.0 0.0 0.0 0.0 0.0 0.0
00000000: 0000 0000 0000 0000 0000 0000 0000 0000
00000010: 0000 0000 0000 0000 0000 0000 0000 0000
00000020: 0000 0000 0000 0000 0000 0000 0000 0000
00000030: 0000 0000 0000 0000 0000 0000 0000 0000
00000040: 0000 0000 0000 0000 0000 0000 0000 0000
00000050: 0000 0000 0000 0000 0000 0000 0000 0000
00000060: 0000 0000 0000 0000 0000 0000 0000 0000
00000070: 0000 0000 0000 0000 0000 0000 0000 0000
00000080: 0000 0000 0000 0000 0000 0000 0000 0000
00000090: 0000 0000 0000 0000 0000 0000 0000 0000
000000a0: 0000 0000 0000 0000 0000 0000 0000 0000
000000b0: 0000 0000 0000 0000 0000 0000 0000 0000
000000c0: 0000 0000 0000 0000 0000 0000 0000 0000
000000d0: 0000 0000 0000 0000 0000 0000 0000 0000
000000e0: 0000 0000 0000 0000 0000 0000 0000 0000
000000f0: 0000 0000 0000 0000 0000 0000 0000 0000

based_model/cnn/batch_normalization/FusedBatchNormV36 f4 [32]
0.99950033 0.99950033 0.99950033 0.99950033 0.99950033 0.99950033 0.99950033 0.99950033
0.99950033 0.99950033 0.99950033 0.99950033 0.99950033 0.99950033 0.99950033 0.99950033
0.99950033 0.99950033 0.99950033 0.99950033 0.99950033 0.99950033 0.99950033 0.99950033
0.99950033 0.99950033 0.99950033 0.99950033 0.99950033 0.99950033 0.99950033 0.99950033
00000000: 41df 7f3f 41df 7f3f 41df 7f3f 41df 7f3f
00000010: 41df 7f3f 41df 7f3f 41df 7f3f 41df 7f3f
00000020: 41df 7f3f 41df 7f3f 41df 7f3f 41df 7f3f
00000030: 41df 7f3f 41df 7f3f 41df 7f3f 41df 7f3f
00000040: 41df 7f3f 41df 7f3f 41df 7f3f 41df 7f3f
00000050: 41df 7f3f 41df 7f3f 41df 7f3f 41df 7f3f
00000060: 41df 7f3f 41df 7f3f 41df 7f3f 41df 7f3f
00000070: 41df 7f3f 41df 7f3f 41df 7f3f 41df 7f3f

based_model/cnn/batch_normalization_1/FusedBatchNormV36 f4 [64]
0.99950033 0.99950033 0.99950033 0.99950033 0.99950033 0.99950033 0.99950033 0.99950033
0.99950033 0.99950033 0.99950033 0.99950033 0.99950033 0.99950033 0.99950033 0.99950033
0.99950033 0.99950033 0.99950033 0.99950033 0.99950033 0.99950033 0.99950033 0.99950033
0.99950033 0.99950033 0.99950033 0.99950033 0.99950033 0.99950033 0.99950033 0.99950033
0.99950033 0.99950033 0.99950033 0.99950033 0.99950033 0.99950033 0.99950033 0.99950033
0.99950033 0.99950033 0.99950033 0.99950033 0.99950033 0.99950033 0.99950033 0.99950033
0.99950033 0.99950033 0.99950033 0.99950033 0.99950033 0.99950033 0.99950033 0.99950033
0.99950033 0.99950033 0.99950033 0.99950033 0.99950033 0.99950033 0.99950033 0.99950033
00000000: 41df 7f3f 41df 7f3f 41df 7f3f 41df 7f3f
00000010: 41df 7f3f 41df 7f3f 41df 7f3f 41df 7f3f
00000020: 41df 7f3f 41df 7f3f 41df 7f3f 41df 7f3f
00000030: 41df 7f3f 41df 7f3f 41df 7f3f 41df 7f3f
00000040: 41df 7f3f 41df 7f3f 41df 7f3f 41df 7f3f
00000050: 41df 7f3f 41df 7f3f 41df 7f3f 41df 7f3f
00000060: 41df 7f3f 41df 7f3f 41df 7f3f 41df 7f3f
00000070: 41df 7f3f 41df 7f3f 41df 7f3f 41df 7f3f
00000080: 41df 7f3f 41df 7f3f 41df 7f3f 41df 7f3f
00000090: 41df 7f3f 41df 7f3f 41df 7f3f 41df 7f3f
000000a0: 41df 7f3f 41df 7f3f 41df 7f3f 41df 7f3f
000000b0: 41df 7f3f 41df 7f3f 41df 7f3f 41df 7f3f
000000c0: 41df 7f3f 41df 7f3f 41df 7f3f 41df 7f3f
000000d0: 41df 7f3f 41df 7f3f 41df 7f3f 41df 7f3f
000000e0: 41df 7f3f 41df 7f3f 41df 7f3f 41df 7f3f
000000f0: 41df 7f3f 41df 7f3f 41df 7f3f 41df 7f3f

based_model/cnn/batch_normalization/FusedBatchNormV3/ReadVariableOp2 f4 [32]
0.0 0.0 0.0 0.0 0.0 0.0 0.0 0.0
0.0 0.0 0.0 0.0 0.0 0.0 0.0 0.0
0.0 0.0 0.0 0.0 0.0 0.0 0.0 0.0
0.0 0.0 0.0 0.0 0.0 0.0 0.0 0.0
00000000: 0000 0000 0000 0000 0000 0000 0000 0000
00000010: 0000 0000 0000 0000 0000 0000 0000 0000
00000020: 0000 0000 0000 0000 0000 0000 0000 0000
00000030: 0000 0000 0000 0000 0000 0000 0000 0000
00000040: 0000 0000 0000 0000 0000 0000 0000 0000
00000050: 0000 0000 0000 0000 0000 0000 0000 0000
00000060: 0000 0000 0000 0000 0000 0000 0000 0000
00000070: 0000 0000 0000 0000 0000 0000 0000 0000

based_model/cnn/batch_normalization_1/FusedBatchNormV3/ReadVariableOp2 f4 [64]
0.0 0.0 0.0 0.0 0.0 0.0 0.0 0.0
0.0 0.0 0.0 0.0 0.0 0.0 0.0 0.0
0.0 0.0 0.0 0.0 0.0 0.0 0.0 0.0
0.0 0.0 0.0 0.0 0.0 0.0 0.0 0.0
0.0 0.0 0.0 0.0 0.0 0.0 0.0 0.0
0.0 0.0 0.0 0.0 0.0 0.0 0.0 0.0
0.0 0.0 0.0 0.0 0.0 0.0 0.0 0.0
0.0 0.0 0.0 0.0 0.0 0.0 0.0 0.0
00000000: 0000 0000 0000 0000 0000 0000 0000 0000
00000010: 0000 0000 0000 0000 0000 0000 0000 0000
00000020: 0000 0000 0000 0000 0000 0000 0000 0000
00000030: 0000 0000 0000 0000 0000 0000 0000 0000
00000040: 0000 0000 0000 0000 0000 0000 0000 0000
00000050: 0000 0000 0000 0000 0000 0000 0000 0000
00000060: 0000 0000 0000 0000 0000 0000 0000 0000
00000070: 0000 0000 0000 0000 0000 0000 0000 0000
00000080: 0000 0000 0000 0000 0000 0000 0000 0000
00000090: 0000 0000 0000 0000 0000 0000 0000 0000
000000a0: 0000 0000 0000 0000 0000 0000 0000 0000
000000b0: 0000 0000 0000 0000 0000 0000 0000 0000
000000c0: 0000 0000 0000 0000 0000 0000 0000 0000
000000d0: 0000 0000 0000 0000 0000 0000 0000 0000
000000e0: 0000 0000 0000 0000 0000 0000 0000 0000
000000f0: 0000 0000 0000 0000 0000 0000 0000 0000

based_model/cnn/batch_normalization_1/FusedBatchNormV3/ReadVariableOp_1 f4 [64]
1.0 1.0 1.0 1.0 1.0 1.0 1.0 1.0
1.0 1.0 1.0 1.0 1.0 1.0 1.0 1.0
1.0 1.0 1.0 1.0 1.0 1.0 1.0 1.0
1.0 1.0 1.0 1.0 1.0 1.0 1.0 1.0
1.0 1.0 1.0 1.0 1.0 1.0 1.0 1.0
1.0 1.0 1.0 1.0 1.0 1.0 1.0 1.0
1.0 1.0 1.0 1.0 1.0 1.0 1.0 1.0
1.0 1.0 1.0 1.0 1.0 1.0 1.0 1.0
00000000: 0000 803f 0000 803f 0000 803f 0000 803f
00000010: 0000 803f 0000 803f 0000 803f 0000 803f
00000020: 0000 803f 0000 803f 0000 803f 0000 803f
00000030: 0000 803f 0000 803f 0000 803f 0000 803f
00000040: 0000 803f 0000 803f 0000 803f 0000 803f
00000050: 0000 803f 0000 803f 0000 803f 0000 803f
00000060: 0000 803f 0000 803f 0000 803f 0000 803f
00000070: 0000 803f 0000 803f 0000 803f 0000 803f
00000080: 0000 803f 0000 803f 0000 803f 0000 803f
00000090: 0000 803f 0000 803f 0000 803f 0000 803f
000000a0: 0000 803f 0000 803f 0000 803f 0000 803f
000000b0: 0000 803f 0000 803f 0000 803f 0000 803f
000000c0: 0000 803f 0000 803f 0000 803f 0000 803f
000000d0: 0000 803f 0000 803f 0000 803f 0000 803f
000000e0: 0000 803f 0000 803f 0000 803f 0000 803f
000000f0: 0000 803f 0000 803f 0000 803f 0000 803f

based_model/cnn/batch_normalization/FusedBatchNormV3/ReadVariableOp_1 f4 [32]
1.0 1.0 1.0 1.0 1.0 1.0 1.0 1.0
1.0 1.0 1.0 1.0 1.0 1.0 1.0 1.0
1.0 1.0 1.0 1.0 1.0 1.0 1.0 1.0
1.0 1.0 1.0 1.0 1.0 1.0 1.0 1.0
00000000: 0000 803f 0000 803f 0000 803f 0000 803f
00000010: 0000 803f 0000 803f 0000 803f 0000 803f
00000020: 0000 803f 0000 803f 0000 803f 0000 803f
00000030: 0000 803f 0000 803f 0000 803f 0000 803f
00000040: 0000 803f 0000 803f 0000 803f 0000 803f
00000050: 0000 803f 0000 803f 0000 803f 0000 803f
00000060: 0000 803f 0000 803f 0000 803f 0000 803f
00000070: 0000 803f 0000 803f 0000 803f 0000 803f

arith.constant f4 [8]
0.061754778 0.015498554 -0.039392814 0.04006998 -0.061457045 -0.007440448 -0.0129705975 -0.0048588077
00000000: 94f2 7c3d a6ed 7d3c 5c5a 21bd 6b20 243d
00000010: 62ba 7bbd 00cf f3bb a182 54bc a236 9fbb

arith.constant1 f4 [4096, 8]
-0.015636483 0.0016215893 0.018089736 -0.02870383 -0.012273738 0.009600029 0.03113777 0.030515682
-0.030705351 -0.010668821 0.011167796 0.046139035 -0.041253593 0.009146871 0.024191985 0.042848304
-0.061196636 -0.0949189 -0.044697497 -0.0005460435 0.054605145 -0.054245256 -0.025075587 -0.013208995
0.0060694423 0.020836903 0.033993874 0.029707445 -0.021069622 -0.0005135977 -0.013662703 0.024191149
0.020479284 -0.07228608 0.00022365278 0.01953881 -0.0098856315 -0.023744304 0.028121542 0.012845393
0.022275053 0.029434746 -0.03144985 -0.034003284 0.0014379354 0.016409067 -0.019858282 0.045205936
-0.034659818 -0.045576602 -0.016394204 0.028561242 0.008618875 0.027159369 -0.02533633 0.034637455
-0.0068249884 -0.024200201 0.002740239 0.0032204043 -0.028515857 -0.024606554 0.022648526 -0.0370894
-0.01333694 0.0010341363 0.06882011 0.012049791 -0.023538712 -0.041805726 -0.07978392 0.00046384986
0.010541326 -0.008026945 0.02284832 -0.0065182787 -0.021398978 0.0032822122 0.008370606 -0.0008787887
-0.030434368 -0.050328705 0.00028957726 -0.024336187 -0.01800172 0.0027061603 0.015386658 0.026945945
0.008130147 0.023575086 0.032196157 0.0050531365 -0.03084324 -0.00020983753 0.0087265605 0.01615687
-0.032670286 0.0066761924 0.0027667445 -0.022714801 0.00879948 -0.030665094 -0.010595039 0.041021116
0.0033920216 -0.020036694 0.0011014681 0.0037307714 0.0012319598 0.014427433 0.0330799 -0.0013256496
0.022996023 -0.01138005 -0.0149600115 -0.057803355 0.026924053 -0.0023743585 0.06689145 0.054102726
-0.045310915 -0.014435721 0.028328747 0.024811273 0.039264243 0.02364488 0.024097249 0.0010015798
0.030348 -0.012487571 -0.006048906 0.024909932 -0.06402042 -0.038222075 0.017258868 -0.010394301
-0.03721873 -0.046184696 -0.022498451 0.01732854 0.010953401 -0.003044313 0.006820832 0.01140083
0.032081023 0.023379415 0.008085415 0.001964799 -0.027935559 -0.055812016 -0.070919015 0.058911085
0.0081204 -0.016385557 -0.033001147 0.002999703 -0.028893784 -0.016507952 0.013319186 0.0404514
-0.04107852 -0.016052008 0.017625434 -0.00874819 0.020968663 -0.018139597 0.010038942 0.0074133007
0.018854791 0.046120986 -0.022836069 -0.0154207 0.0019567697 0.033144027 -0.04173544 0.06907156
0.015753217 -0.026231786 -0.0064636385 0.0025499903 -0.031077204 -0.023858685 0.037614647 -0.047363523
-0.027936127 0.030841278 0.030609652 0.02585679 -0.015468899 0.019373069 -0.024860907 -0.031010587
0.0154874725 -0.0037240821 -0.020553013 0.029984156 -0.043931082 -0.01731367 0.016363064 -0.0027650779
-0.038127944 -0.010025288 0.01078992 0.032004055 0.02785917 -0.013876232 0.006231644 0.0026678853
-0.034693763 0.011550059 -0.051494792 0.019332828 -0.029315192 0.0047009825 -0.0011308142 -0.007158327
-0.01945227 -0.017410291 0.021515142 -0.0077696037 0.020843018 -0.005782908 0.02201117 -0.00046661473
-0.021662498 0.018428672 -0.0127030825 0.03787121 0.032281812 0.00061311707 0.03216446 0.022767657
-0.08039237 0.039821777 0.036657676 0.009199691 0.056127217 -0.07651772 0.053866815 -0.032564137
0.07674611 0.022232322 -0.04326706 -0.018616218 -0.052336063 -0.01474943 0.024456289 -0.002246171
-0.0076619065 0.026526796 0.033884473 -0.011122987 0.0016111685 -0.008610564 -0.025707519 0.030920686
00000000: 1518 80bc 828b d43a ed30 943c 4b24 ebbc
00000010: ca17 49bc 7149 1d3c a314 ff3c 06fc f93c
00000020: ca89 fbbc 47cc 2ebc 22f9 363c 49fc 3c3d
00000030: 87f9 28bd c2dc 153c 452e c63c b481 2f3d
00000040: 53a9 7abd d764 c2bd b914 37bd 5c24 0fba
00000050: a5a9 5f3d 4630 5ebd 516b cdbc 8a6a 58bc
00000060: 2ce2 c63b 27b2 aa3c 293d 0b3d 075d f33c
00000070: 339a acbc f5a2 06ba 88d9 5fbc 842c c63c
00000080: 2cc4 a73c b90a 94bd 5684 6a39 db0f a03c
00000090: 58f7 21bc 6a83 c2bc 265f e63c 7c75 523c
000000a0: 2c7a b63c 2321 f13c 8fd1 00bd 0747 0bbd
000000b0: 1b79 bc3a 4f6c 863c d6ad a2bc dc29 393d
000000c0: 74f7 0dbd 88ae 3abd 234d 86bc 44f9 e93c
000000d0: 2f36 0d3c 537d de3c 238e cfbc 01e0 0d3d
000000e0: 27a4 dfbb 803f c6bc 9595 333b 6b0d 533b
000000f0: 169a e9bc af93 c9bc 6789 b93c 0eeb 17bd
00000100: 2e83 5abc db8b 873a 8ff1 8c3d 7d6c 453c
00000110: 42d4 c0bc 7b3c 2bbd c065 a3bd e030 f339
00000120: 87b5 2c3c 7383 03bc 662c bb3c 4997 d5bb
00000130: e94c afbc 621a 573b de24 093c 835e 66ba
00000140: 7f51 f9bc 7925 4ebd 67d2 9739 af5c c7bc
00000150: 5878 93bc d659 313b 5218 7c3c bebd dc3c
00000160: 4f34 053c 8a20 c13c 1ee0 033d c894 a53b
00000170: f6aa fcbc d507 5cb9 d9f9 0e3c 6a5b 843c
00000180: 47d1 05bd f6c3 da3b 4552 353b 6414 babc
00000190: b22b 103c 5d35 fbbc d196 2dbc c205 283d
000001a0: ae4c 5e3b fe23 a4bc 235f 903a f57f 743b
000001b0: b679 a13a 0a61 6c3c ca7e 073d 6bc1 adba
000001c0: 2862 bc3c 6473 3abc d61a 75bc 36c3 6cbd
000001d0: d58f dc3c 209b 1bbb 62fe 883d d29a 5d3d
000001e0: f097 39bd cd83 6cbc b011 e83c 0341 cb3c
000001f0: 8bd3 203d e8b2 c13c 9867 c53c 7147 833a
00000200: 5e9c f83c ab98 4cbc e735 c6bb ea0f cc3c
00000210: 231d 83bd c08e 1cbd 7862 8d3c dc4c 2abc
00000220: ab72 18bd 2a2c 3dbd ac4e b8bc 95f4 8d3c
00000230: e575 333c 1983 47bb 4981 df3b 8cca 3a3c
00000240: 6467 033d 3086 bf3c b078 043c dbc3 003b
00000250: 1dd9 e4bc 249b 64bd fd3d 91bd c04c 713d
00000260: 6d0b 053c 013b 86bc 362c 07bd aa96 443b
00000270: a8b2 ecbc af3b 87bc b738 5a3c 5eb0 253d
00000280: f341 28bd 807f 83bc 3763 903c 9154 0fbc
00000290: 79c6 ab3c 7e99 94bc 607a 243c 46eb f23b
000002a0: 5d75 9a3c 5ce9 3c3d b512 bbbc 1ba7 7cbc
000002b0: 263d 003b 08c2 073d c8f2 2abd 6475 8d3d
000002c0: e40c 813c 0be4 d6bc eecc d3bb bd1d 273b
000002d0: 9f95 febc 4a73 c3bc d111 1a3d 4100 42bd
000002e0: 4eda e4bc d9a6 fc3c 18c1 fa3c 9ed1 d33c
000002f0: 4471 7dbc 45b4 9e3c 1aa9 cbbc ea09 febc
00000300: 2bbf 7d3c bb0f 74bb cb5e a8bc 55a1 f53c
00000310: 14f1 33bd 66d5 8dbc d50b 863c 4f36 35bb
00000320: 0c2c 1cbd 1b41 24bc 34c8 303c af16 033d
00000330: ea38 e43c 2359 63bc d232 cc3b b0d7 2e3b
00000340: 0c1b 0ebd 753c 3d3c 34ec 52bd e15f 9e3c
00000350: 6a26 f0bc b30a 9a3b d437 94ba 6690 eabb
00000360: 5e5a 9fbc 07a0 8ebc 8640 b03c 2998 febb
00000370: fabe aa3c 8c7e bdbb c550 b43c f8a3 f4b9
00000380: 8d75 b1bc baf7 963c 9720 50bc d81e 1b3d
00000390: ef39 043d 97b9 203a e1be 033d 3d83 ba3c
000003a0: c1a4 a4bd 291c 233d 5c26 163d 4dba 163c
000003b0: a7e5 653d 53b5 9cbd 73a3 5c3d f961 05bd
000003c0: 112d 9d3d 8f20 b63c cd38 31bd 0a81 98bc
000003d0: 575e 56bd 98a7 71bc 8e58 c83c 7f34 13bb
000003e0: bb10 fbbb b94e d93c 72ca 0a3d 303d 36bc
000003f0: d82d d33a 5313 0dbc 9398 d2bc 614d fd3c

arith.constant2 f4 [32]
0.12670776 -0.12065128 -0.17202534 -0.118204385 -0.020331146 -0.1568851 0.18400124 0.17334594
0.09543589 -0.0014626588 -0.1165441 0.11451237 -0.13215826 -0.060196362 -0.12324486 0.08012837
-0.16265115 0.16558704 -0.09738576 -0.06062525 -0.0779128 -0.13798101 0.16500194 0.18243243
0.09427884 -0.14693496 -0.1362648 -0.115621075 -0.12595008 -0.11948351 -0.10300486 -0.10826259
00000000: aebf 013e 0518 f7bd 6927 30be 2415 f2bd
00000010: 818d a6bc 7da6 20be d26a 3c3e 9981 313e
00000020: e473 c33d afb6 bfba acae eebd 7685 ea3d
00000030: 7f54 07be 7690 76bd cd67 fcbd 581a a43d
00000040: 068e 26be a68f 293e 2f72 c7bd 2f52 78bd
00000050: bf90 9fbd e54a 0dbe 45f6 283e 91cf 3a3e
00000060: 4415 c13d 1e76 16be 0089 0bbe beca ecbd
00000070: 0ff9 00be c5b3 f4bd 36f4 d2bd c7b8 ddbd

arith.constant3 f4 [32]
1.0007455 1.0346684 1.0081135 1.0336792 1.0358807 1.0235466 1.0328046 1.0139151
0.9987034 1.0312155 0.9971272 1.0008361 1.0070413 1.0290715 1.0291611 1.0071578
1.0180796 1.0497861 1.0211215 1.0302036 1.0350461 1.0060085 1.0252241 1.0101585
1.0797065 1.0112313 1.002388 1.0472344 1.0102537 1.0275198 1.0260485 1.0228518
00000000: 6e18 803f 0470 843f dd09 813f 9a4f 843f
00000010: bd97 843f 9303 833f f132 843f f8c7 813f
00000020: 07ab 7f3f dffe 833f ba43 7f3f 661b 803f
00000030: bbe6 803f 9db8 833f 8dbb 833f 8cea 803f
00000040: 6f50 823f 645f 863f 1cb4 823f b6dd 833f
00000050: 647c 843f e3c4 803f 8b3a 833f e04c 813f
00000060: d333 8a3f 0770 813f 404e 803f c70b 863f
00000070: fe4f 813f c585 833f 8f55 833f cfec 823f

arith.constant4 f4 [64]
-0.014147287 -0.0011646712 0.10581435 -0.010142643 -0.026876729 0.0014825695 -0.013291325 -0.006063774
0.19322021 -0.033660505 -0.0020198922 -0.0141229285 -0.018118337 -0.14288633 -0.033137813 -0.081808574
0.14497367 0.010940519 0.09593393 -0.012476655 -0.011031813 0.037137125 0.0462534 -0.021780014
0.0058860597 -0.047811136 0.0012944894 -0.013965917 0.0049020825 -0.136505 0.17997096 -0.025458256
0.002046128 -0.011101131 0.0699174 -0.08764644 -0.028830497 -0.016971668 0.13869117 -0.008968986
-0.024534764 -0.11333349 -0.009735758 -0.012972295 -0.123070255 -0.024008917 -0.006254361 -0.017001346
0.018321056 0.10828093 0.0010622954 -0.023889225 0.01866075 -0.012113897 -0.011140085 0.20223896
-0.0016676468 -0.018127002 0.060057893 0.1406329 -0.009046146 -0.018730637 -0.027753823 -0.043154456
00000000: 06ca 67bc e1a7 98ba 32b5 d83d 542d 26bc
00000010: 962c dcbc c752 c23a dcc3 59bc a0b2 c6bb
00000020: 85db 453e 99df 09bd 2b60 04bb db63 67bc
00000030: e86c 94bc cb50 12be 84bb 07bd 418b a7bd
00000040: fa73 143e dd3f 333c 0279 c43d e26a 4cbc
00000050: c7be 34bc 191d 183d 3574 3d3d 006c b2bc
00000060: d9df c03b 9cd5 43bd dbab a93a 4dd1 64bc
00000070: a6a1 a03b f7c7 0bbe 4f4a 383e d58d d0bc
00000080: 5518 063b 85e1 35bc db30 8f3d fa7f b3bd
00000090: ef2d ecbc 2b08 8bbc 0f05 0e3e a7f2 12bc
000000a0: 21fd c8bc 641b e8bd bb82 1fbc c089 54bc
000000b0: 420c fcbd 59ae c4bc 62f1 ccbb 6846 8bbc
000000c0: 0a16 963c 64c2 dd3d b83c 8b3a 56b3 c3bc
000000d0: 6ede 983c 5e79 46bc e784 36bc bb17 4f3e
000000e0: f194 daba 147f 94bc 44ff 753d 1202 103e
000000f0: 4936 14bc fe70 99bc fc5b e3bc bac2 30bd

arith.constant5 f4 [64]
0.9913614 0.9976939 1.2463994 0.99952424 1.0645206 1.0082206 0.99019873 0.9962848
1.1365726 1.0140728 1.1834036 0.99006456 0.9981837 1.0041764 1.2688087 1.0316796
1.1304333 1.0240129 1.079007 1.0146748 1.0010083 1.1426187 1.103377 1.0129994
1.0493459 1.0170255 1.0144137 1.0145547 1.0133605 1.0278134 1.0595073 1.0092851
1.0752668 1.0094602 1.0176338 1.0096915 1.0238844 0.9991203 1.1743598 1.0152227
0.9878565 1.0249537 0.99561375 0.98644835 1.0721556 1.1450847 1.0346843 1.0211478
1.1731361 1.0947945 1.0125804 1.0715791 1.0781912 1.0061594 1.0115739 1.2046572
1.1165262 0.99085003 1.3189348 1.1011423 1.2089729 0.98852074 1.0364853 0.9949976
00000000: dcc9 7d3f de68 7f3f 048a 9f3f d2e0 7f3f
00000010: 3642 883f 5f0d 813f aa7d 7d3f 850c 7f3f
00000020: 367b 913f 23cd 813f c579 973f df74 7d3f
00000030: f888 7f3f da88 803f 5368 a23f 140e 843f
00000040: 0ab2 903f db12 833f e71c 8a3f dde0 813f
00000050: 0a21 803f 5441 923f 753b 8d3f f7a9 813f
00000060: f750 863f e42d 823f 4fd8 813f eedc 813f
00000070: ccb5 813f 648f 833f ef9d 873f 4130 813f
00000080: 58a2 893f fe35 813f d341 823f 923d 813f
00000090: a50e 833f 59c6 7f3f 6c51 963f d1f2 813f
000000a0: 2ae4 7c3f af31 833f 8be0 7e3f e187 7c3f
000000b0: 653c 893f 2392 923f 8970 843f f9b4 823f
000000c0: 5329 963f 3a22 8c3f 3c9c 813f 8129 893f
000000d0: 2b02 8a3f d5c9 803f 417b 813f 3532 9a3f
000000e0: 55ea 8e3f 59a8 7d3f dbd2 a83f 3bf2 8c3f
000000f0: a0bf 9a3f b20f 7d3f 8dab 843f 2ab8 7e3f

arith.constant6 f4 [32]
0.12618575 -0.121065356 -0.17172007 -0.11802137 -0.02043661 -0.15708081 0.18445691 0.17341875
0.095076 -0.0015000544 -0.11588261 0.11404397 -0.13166998 -0.05954736 -0.12368489 0.07994622
-0.16303505 0.16667618 -0.09714002 -0.06024383 -0.07813156 -0.13778172 0.16531962 0.1824486
0.09425507 -0.14649127 -0.13592981 -0.11587316 -0.12568362 -0.119285665 -0.102609664 -0.10821173
00000000: d636 013e 1df1 f7bd 63d7 2fbe 30b5 f1bd
00000010: ad6a a7bc cbd9 20be 46e2 3c3e af94 313e
00000020: 35b7 c23d 799d c4ba dd53 edbd e38f e93d
00000030: 7fd4 06be efe7 73bd 814e fdbd d8ba a33d
00000040: a9f2 26be 29ad 2a3e 59f1 c6bd 3cc2 76bd
00000050: 7003 a0bd a716 0dbe 8c49 293e ced3 3a3e
00000060: cd08 c13d cf01 16be 2f31 0bbe e84e edbd
00000070: 35b3 00be 0b4c f4bd 0425 d2bd 1d9e ddbd

arith.constant7 f4 [3, 3, 1, 32]
0.13059738 0.005244261 0.03650375 -0.0052078795 -0.027954504 -0.012152867 -0.019911887 0.015977558
-0.13304059 -0.115293406 0.1447462 -0.060119525 0.14359814 0.1042831 0.08155794 0.078566775
0.0046215625 -0.0010341143 0.035960753 0.13471965 -0.13808487 0.16045219 -0.15398924 0.14729
-0.14320476 -0.00020443762 -0.01288544 -0.11088743 -0.08934695 -0.0041989177 0.11109596 0.17387517
0.086568765 0.018957693 -0.0364921 0.07870962 0.07848111 -0.20241043 0.022437187 0.045222763
0.046775527 -0.13361193 0.0025780534 -0.08287643 -0.032726787 -0.027514413 -0.118353285 0.036643323
0.078732245 0.10168283 -0.061748825 0.0955914 0.011745019 -0.117061466 0.026435185 0.027083756
0.22388776 0.13326718 0.016279986 0.114661165 -0.036659345 0.018651908 -0.037741445 -0.0545413
0.084950976 -0.18855724 0.021916747 -0.10157465 0.169485 0.10226041 0.0085760215 0.0067436835
0.038124997 0.078494556 -0.11769645 -0.022673452 -0.027704168 0.13561857 0.072027445 0.111264326
-0.12959224 -0.10752305 0.2226658 0.17939126 -0.015160819 0.13664308 0.106755555 -0.08123388
-0.030998873 -0.012637837 -0.091500595 0.012116518 0.10844806 -0.10941287 0.05222347 -0.1695526
0.025071898 -0.007477889 -0.036082465 -0.027703427 0.042079777 -0.04654856 0.026552474 -0.008061528
-0.109729394 0.19312423 0.091657475 -0.09563873 0.041010108 -0.029295059 0.052008905 0.04184916
-0.021159427 0.1176247 0.10374663 -0.063180715 -0.19089141 -0.056848034 -0.14982735 -0.117933124
-0.14380711 -0.12179657 0.054959062 0.13250357 -0.033095125 0.0510264 -0.1668131 -0.05007123
-0.091869004 0.0010977415 -0.063101 0.172626 -0.16280031 0.15489157 -0.028780336 0.11582807
-0.14700122 -0.14207438 0.08952738 0.10173036 0.060547445 -0.021070426 -0.16376837 0.104646534
0.0028026467 -0.20495954 0.009120381 0.16939972 0.04513156 0.07953041 0.008182092 0.0038302355
0.22717296 -0.0053207013 0.13628767 -0.029611856 -0.007293044 -0.01172823 0.07996938 -0.06642463
-0.08009838 -0.0033239454 -0.118357904 -0.08166173 0.04521301 0.04167926 0.048760455 -0.13374487
-0.03539385 0.00028314596 -0.13876893 0.032419924 -0.1015497 -0.0076702847 -0.097732395 -0.07437682
0.0069793626 -0.05594924 -0.041471045 0.014413395 0.01154069 0.13127476 0.102099605 0.0130321365
-0.034035027 0.03877228 -0.019428536 -0.10555829 -0.18052699 0.059548624 -0.18236126 -0.0056349994
-0.028349133 0.022199837 0.04004703 0.004797791 -0.02486037 -0.040134277 0.0643388 -0.04591304
-0.13427216 0.15615115 0.009443364 -0.090165325 -0.020666264 -0.004420722 -0.09740947 0.005844307
0.0003329732 -0.0035276555 0.089887135 -0.10872244 0.19548711 -0.020509915 -0.091449924 -0.09391444
-0.06419856 -0.15243478 -0.091721185 -0.03263786 -0.034557566 -0.012238823 -0.119818926 -0.02753187
-0.09415347 -0.1473204 0.16594349 0.14037402 0.03740284 0.18892404 -0.01909339 -0.08022225
-0.10322333 0.013041956 0.017432297 -0.08058524 0.08083078 0.005883481 0.05886693 -0.098456554
0.018956624 0.1210251 -0.13589296 0.041666504 -0.013695037 0.04906761 0.12149725 0.09382758
0.13283423 -0.10126057 -0.028818564 -0.012596628 -0.026057575 0.19131687 0.028432656 -0.011301247
00000000: 52bb 053e 0dd8 ab3b f584 153d dca6 aabb
00000010: d800 e5bc d21c 47bc 411e a3bc 5ee3 823c
00000020: cb3b 08be f31e ecbd 5938 143e e43f 76bd
00000030: 640b 133e 6192 d53d d907 a73d 9ee7 a03d
00000040: 7a70 973b 1e8b 87ba 954b 133d f3f3 093e
00000050: 1f66 0dbe 944d 243e 5baf 1dbe 31d3 163e
00000060: 45a4 12be 4e5e 56b9 741d 53bc f318 e3bd
00000070: 89fb b6bd 1397 89bb 4786 e33d 550c 323e
00000080: f74a b13d 2a4d 9b3c be78 15bd 8232 a13d
00000090: b4ba a03d ae44 4fbe 31ce b73c 813b 393d
000000a0: b297 3f3d 91d1 08be 8ff4 283b 1ebb a9bd
000000b0: 860c 06bd e865 e1bc 3563 f2bd 4f17 163d
000000c0: 5f3e a13d 163f d03d 56ec 7cbd 6dc5 c33d
000000d0: 2e6e 403c ecbd efbd 9a8e d83c c1de dd3c
000000e0: d542 653e 3177 083e 9b5d 853c 79d3 ea3d
000000f0: 1c28 16bd e3cb 983c c696 1abd b366 5fbd
00000100: c7fa ad3d 2615 41be c08a b33c 5f06 d0bd
00000110: 7a8d 2d3e e86d d13d 7182 0c3c 1efa dc3b
00000120: f528 1c3d c1c1 a03d d60a f1bd adbd b9bc
00000130: daf3 e2bc 98df 0a3e 2083 933d 8dde e33d
00000140: d4b3 04be 0b35 dcbd 8102 643e 58b2 373e
00000150: 1565 78bc 2aec 0b3e a8a2 da3d f35d a6bd
00000160: 59f1 fdbc ee0e 4fbc aa64 bbbd 5c84 463c
00000170: 041a de3d db13 e0bd 47e8 553d 329f 2dbe
00000180: 9563 cd3c 1409 f5bb 35cb 13bd 4cf2 e2bc
00000190: d85b 2c3d b4a9 3ebd 9384 d93c 8014 04bc
000001a0: ceb9 e0bd 5cc2 453e eab6 bb3d 3dde c3bd
000001b0: 37fa 273d 31fc efbc 4a07 553d 066a 2b3d
000001c0: 8956 adbc 38e5 f03d 1d79 d43d e464 81bd
000001d0: 0a79 43be 7cd9 68bd 576c 19be ec86 f1bd
000001e0: 2c42 13be 7b70 f9bd c11c 613d 04af 073e
000001f0: c18e 07bd 0f01 513d 0ed1 2abe 7d17 4dbd
00000200: d125 bcbd 18e2 8f3a 193b 81bd dfc4 303e
00000210: 20b5 26be e59b 1e3e bdc4 ebbc 4437 ed3d
00000220: 7d87 16be f27b 11be 225a b73d 0258 d03d
00000230: 9900 783d e39b acbc e5b2 27be ec50 d63d
00000240: 9cac 373b eae0 51be a76d 153c 1f77 2d3e
00000250: dfdb 383d d7e0 a23d 2e0e 063c b004 7b3b
00000260: 07a0 683e 4759 aebb ff8e 0b3e 9094 f2bc
00000270: 7dfa eebb c327 40bc fcc6 a33d a309 88bd
00000280: 9f0a a4bd 8dd6 59bb a165 f2bd 443e a7bd
00000290: 4731 393d dfb7 2a3d 0bb9 473d 6af4 08be
000002a0: 24f9 10bd 3573 9439 7119 0ebe c1ca 043d
000002b0: 4af9 cfbd 0357 fbbb ec27 c8bd e052 98bd
000002c0: 23b3 e43b 082b 65bd 8bdd 29bd 2926 6c3c
000002d0: 2a15 3d3c e46c 063e 9919 d13d be84 553c
000002e0: 5068 0bbd afcf 1e3d 9828 9fbc f22e d8bd
000002f0: 11dc 38be 42e9 733d e9bc 3abe cda5 b8bb
00000300: 713c e8bc 6fdc b53c 5b08 243d ca36 9d3b
00000310: faa7 cbbc d763 24bd 10c4 833d 500f 3cbd
00000320: a47e 09be 16e6 1f3e 57b8 1a3c 99a8 b8bd
00000330: 4c4c a9bc b4db 90bb 9e7e c7bd 9a81 bf3b
00000340: e892 ae39 3d30 67bb bf16 b83d dfa9 debd
00000350: c62d 483e 6904 a8bc 194a bbbd 3756 c0bd
00000360: 897a 83bd dd17 1cbe 51d8 bbbd 47af 05bd
00000370: 3c8c 0dbd 5885 48bc a063 f5bd 848a e1bc
00000380: 89d3 c0bd 29db 16be 17ed 293e 35be 0f3e
00000390: b833 193d 4e75 413e be69 9cbc 904b a4bd
000003a0: c166 d3bd eead 553c 2dce 8e3c e009 a5bd
000003b0: 9c8a a53d 37ca c03b 731e 713d 97a3 c9bd
000003c0: ec4a 9b3c 02dc f73d 8627 0bbe 7faa 2a3d
000003d0: 2661 60bc 1efb 483d 8dd3 f83d ad28 c03d
000003e0: b205 083e b461 cfbd e914 ecbc 1662 4ebc
000003f0: b276 d5bc 92e8 433e 9aeb e83c de28 39bc

arith.constant8 f4 [64]
-0.014149628 -0.0011840067 0.11079228 -0.010198061 -0.02726876 0.0014177238 -0.013306661 -0.0060808235
0.19655901 -0.033527784 -0.0015823648 -0.014125296 -0.0181022 -0.1429231 -0.035137814 -0.08191412
0.14729962 0.010802581 0.09681173 -0.0124682225 -0.011049184 0.03745198 0.046967685 -0.021741962
0.0056612147 -0.047483653 0.0012797251 -0.013960724 0.004834825 -0.13655911 0.18064307 -0.02538916
0.0022732907 -0.01112233 0.06969995 -0.08768418 -0.028832236 -0.016940119 0.14241222 -0.008991476
-0.024452336 -0.11367582 -0.009702881 -0.012991883 -0.123940654 -0.025178147 -0.0062973616 -0.01696225
0.016988425 0.10889522 0.0009908756 -0.023568882 0.018716497 -0.012115885 -0.011143688 0.2088868
-0.0010851482 -0.01809345 0.066875555 0.14288013 -0.009284425 -0.01869024 -0.027646605 -0.042924874
00000000: d7d3 67bc ac30 9bba 10e7 e23d c515 27bc
00000010: bc62 dfbc ebd2 b93a 2e04 5abc a541 c7bb
00000020: c446 493e 6e54 09bd 5a67 cfba c96d 67bc
00000030: 114b 94bc 6f5a 12be abec 0fbd 97c2 a7bd
00000040: b6d5 163e 4ffd 303c 3a45 c63d 8447 4cbc
00000050: a307 35bc 3f67 193d 3061 403d 331c b2bc
00000060: b681 b93b 387e 42bd 73bc a73a 85bb 64bc
00000070: 746d 9e3b 27d6 0bbe 7ffa 383e edfc cfbc
00000080: 7dfb 143b 6f3a 36bc d9be 8e3d c393 b3bd
00000090: 9531 ecbc 01c6 8abc 82d4 113e fc50 13bc
000000a0: 4450 c8bc dece e8bd d5f8 1ebc e8db 54bc
000000b0: 99d4 fdbd 6742 cebc 195a cebb 6bf4 8abc
000000c0: 4f2b 8b3c 7504 df3d 45e0 813a 8713 c1bc
000000d0: 5753 993c b481 46bc 0494 36bc 6ce6 553e
000000e0: 883b 8eba b738 94bc 0df6 883d 2b4f 123e
000000f0: b31d 18bc 461c 99bc 227b e2bc fed1 2fbd

arith.constant9 f4 [3, 3, 32, 64]
0.0090418 -0.009015037 -0.044937667 0.04693581 -0.07969014 -0.018022962 0.03198169 -0.06796338
0.03905615 0.053489152 -0.010114264 0.06761493 -0.05772981 0.007057876 -0.026625698 0.0054368917
0.09280723 -0.07030699 0.029037097 0.05505226 0.041946862 0.006344599 0.011599173 0.037349407
-0.047769267 0.019574173 0.028932223 0.061731722 0.055344075 0.021108732 0.039474238 0.029777622
0.041810293 0.029370889 -0.0077158404 -0.085908 -0.03607093 -0.06821029 0.015341039 0.039938398
-0.051452596 -0.091683105 0.07810482 -0.05864419 0.060190726 -0.02771614 0.044418506 0.059615962
0.032908887 0.028882392 -0.01711816 -0.026399339 0.04457518 -0.05173238 0.00901614 -0.053470697
-0.033623002 0.04618029 -0.000118278695 0.029187394 0.01904153 -0.048820518 -0.013795487 0.013126253
0.028376741 -0.059947655 0.11524187 -0.041675303 -0.050144948 0.06682413 -0.04262275 -0.009242683
-0.062668875 -0.0051624626 -0.045894254 0.01865019 0.054948963 -0.019967336 -0.005076858 0.053150725
0.08436813 -0.086082965 0.02573266 0.033567086 0.028968625 -0.006918314 -9.732168e-06 0.043457538
-0.025310557 0.074321784 -0.04853099 -0.08308821 -0.0005263959 0.051918857 -0.08640123 0.055082846
0.02613948 -0.014252379 -0.01365303 0.015602685 -0.07902096 -0.019116808 0.06785671 -0.01750782
-0.04969375 0.040899336 0.011274945 0.002481761 -0.013564054 0.06207042 0.07338078 0.071014926
-0.04575505 -0.057740923 0.046718523 0.038481414 -0.008116115 -0.052426852 0.055311516 0.005442743
-0.075668074 0.022200787 -0.06461121 -0.095115595 0.07859575 -0.0088623725 -0.013070789 0.050275963
-0.059507534 -0.00204429 -0.118882485 0.034878425 -0.028966092 -0.070944756 0.027169442 -0.06287572
0.086638734 0.043450892 0.05042367 0.07041646 0.024035359 -0.023929683 -0.020141497 -0.0013411754
0.037101295 0.013649762 0.062071413 0.038971506 -0.04506112 -0.082235724 -0.058836326 0.024454417
-0.012513149 -0.019764032 -0.07482043 0.038321994 0.009556078 0.06740789 0.0014007589 -0.035672452
-0.048433512 -0.029912164 -0.040168844 0.07618097 0.016153652 -0.031843636 -0.052300636 -0.07138959
0.024135144 0.005814158 -0.06328162 0.05879515 -0.027827144 0.06667849 0.08676436 -0.008431001
-0.05182785 0.0599336 -0.062439837 0.022520278 0.047891177 -0.05457275 -0.031895243 0.041522235
0.041449875 -0.08379984 -0.073356815 -0.009288059 -0.057516623 0.04382905 -0.12883873 0.05902869
0.065008454 -0.021177473 -0.0033182404 0.095308155 -0.05377862 -0.008243438 -0.03696354 0.0025140138
0.06857712 0.04819451 0.016620738 -0.011714115 0.072864905 0.057777017 0.033657104 0.015637014
0.059451245 -0.07304242 -0.045659125 0.04675845 0.07821496 -0.065372325 0.04360898 -0.04680267
-0.049410455 -0.048137195 -0.038283322 -0.04908062 0.04920255 0.005325913 -0.064013004 -0.003515811
-0.006976367 0.07171186 -0.061041426 0.0255929 -0.046590358 -0.018111547 0.038833693 -0.029866397
0.069167204 0.005683477 0.0436854 0.04035024 -0.021494737 -0.055094663 -0.016753118 -0.046673246
-0.0019485671 0.040025596 -0.054831106 0.087159365 -0.000928799 0.020922583 -0.044087935 -0.023284443
-0.02697211 -0.020497039 0.0027582035 0.017518062 0.10600606 0.025531096 0.04550675 0.049412537
00000000: 0f24 143c ceb3 13bc 8f10 38bd c43f 403d
00000010: 9634 a3bd e4a4 93bc 3cff 023d 6230 8bbd
00000020: 57f9 1f3d 7117 5b3d 4cb6 25bc b279 8a3d
00000030: 1876 6cbd c145 e73b 231e dabc f427 b23b
00000040: b811 be3d 1cfd 8fbd 35df ed3c 7b7e 613d
00000050: 79d0 2b3d 5be6 cf3b 750a 3e3c b1fb 183d
00000060: b5a9 43bd 045a a03c 4503 ed3c 67da 7c3d
00000070: 78b0 623d 38ec ac3c bdaf 213d 33f0 f33c
00000080: 4541 2b3d 389b f03c 29d5 fcbb 89f0 afbd
00000090: 1dbf 13bd d6b1 8bbd fb58 7b3c 7296 233d
000000a0: f5bf 52bd 5ac4 bbbd 6bf5 9f3d e434 70bd
000000b0: 8d8a 763d f50c e3bc 2ef0 353d de2f 743d
000000c0: 78cb 063d c49a ec3c 623b 8cbc 6d43 d8bc
000000d0: 7794 363d 55e5 53bd 6fb8 133c 1704 5bbd
000000e0: 46b8 09bd 8b27 3d3d 640c f8b8 671a ef3c
000000f0: fcfc 9b3c 06f8 47bd 7706 62bc 7f0f 573c
00000100: 5776 e83c ac8b 75bd ee03 ec3d b9b3 2abd
00000110: ca64 4dbd 17db 883d 3195 2ebd 9f6e 17bc
00000120: 8a58 80bd e029 a9bb 9dfb 3bbd 49c8 983c
00000130: 2a12 613d 8a92 a3bc c65b a6bb 93b4 593d
00000140: 33c9 ac3d 444c b0bd 4dcd d23c a47d 093d
00000150: 9c4f ed3c 06b3 e2bb 5847 23b7 8800 323d
00000160: 1658 cfbc 0536 983d 6ec8 46bd 272a aabd
00000170: d5fd 09ba dea8 543d 21f3 b0bd 8d9e 613d
00000180: 7622 d63c cf82 69bc f5b0 5fbc 67a2 7f3c
00000190: bed5 a1bd da9a 9cbc 75f8 8a3d 8f6c 8fbc
000001a0: ac8b 4bbd 1086 273d 8cba 383c 0aa5 223b
000001b0: c43b 5ebc 8d3d 7e3d aa48 963d 4670 913d
000001c0: a669 3bbd bf81 6cbd ec5b 3f3d b09e 1d3d
000001d0: 74f9 04bc 8abd 56bd 548e 623d 0a59 b23b
000001e0: ddf7 9abd 6dde b53c e252 84bd f7cb c2bd
000001f0: cff6 a03d 7c33 11bc dd26 56bc 2bee 4d3d
00000200: 2cbe 73bd 7ff9 05bb a978 f3bd aedc 0e3d
00000210: 4c4a edbc 7c4b 91bd 7392 de3c fcc4 80bd
00000220: a66f b13d 90f9 313d 0d89 4e3d 8136 903d
00000230: cde5 c43c 2f08 c4bc c8ff a4bc 61ca afba
00000240: 87f7 173d 40a3 5f3c 983e 7e3d 96a0 1f3d
00000250: 0292 38bd 346b a8bd 5cfe 70bd a154 c83c
00000260: f303 4dbc 2ee8 a1bc 743b 99bd 86f7 1c3d
00000270: 1991 1c3c 260d 8a3d ab99 b73a 471d 12bd
00000280: 3862 46bd 5b0a f5bc 1688 24bd c504 9c3d
00000290: aa54 843c 796e 02bd 3139 56bd b534 92bd
000002a0: 11b7 c53c b184 be3b cb99 81bd 2fd3 703d
000002b0: c0f5 e3bc bb8e 883d 83b1 b13d 2e22 0abc
000002c0: 7149 54bd ef7c 753d eac0 7fbd 727c b83c
000002d0: 8a29 443d ad87 5fbd 96a4 02bd 3813 2a3d
000002e0: 58c7 293d 409f abbd 193c 96bd f12c 18bc
000002f0: 8d96 6bbd 1786 333d 4dee 03be 11c8 713d
00000300: 2723 853d 617c adbc d676 59bb ec30 c33d
00000310: f846 5cbd 7c0f 07bc 1567 17bd 27c2 243b
00000320: 2972 8c3d 9b67 453d 3728 883c 8fec 3fbc
00000330: 323a 953d 98a7 6c3d 08dc 093d 3219 803c
00000340: 2683 733d 4497 95bd 1005 3bbd ca85 3f3d
00000350: 2a2f a03d ede1 85bd 549f 323d 28b4 3fbd
00000360: 9e62 4abd 822b 45bd f9ce 1cbd c308 49bd
00000370: 9d88 493d ff84 ae3b 4019 83bd 8569 66bb
00000380: 029a e4bb abdd 923d 9306 7abd 34a8 d13c
00000390: 88d5 3ebd ab5e 94bc 1410 1f3d 60aa f4bc
000003a0: 89a7 8d3d 763c ba3b 76ef 323d 4b46 253d
000003b0: bb15 b0bc f1aa 61bd d63d 89bc 722c 3fbd
000003c0: 1067 ffba e1f1 233d 9596 60bd 9c80 b23d
000003d0: a57a 73ba d665 ab3c 8d95 34bd 04bf bebc
000003e0: 9df4 dcbc 68e9 a7bc fac2 343b 0a82 8f3c
000003f0: b519 d93d 9726 d13c 4965 3a3d cd64 4a3d

arith.constant10 f4 [32, 8, 32]
0.061668016 0.29021952 0.0006529148 -0.1118268 0.0014033704 0.08646383 0.13970323 0.09403589
0.12952542 0.04310734 0.06958679 0.012625265 0.13337705 0.022724975 0.026064198 -0.038172185
-0.20398055 -0.17310986 0.005983365 -0.03738203 0.040053096 0.0010195288 -0.098773524 0.002942115
0.00594328 -0.044305097 0.005969265 0.00556234 0.0044292645 -0.05446782 0.029033419 0.04557626
-0.0030240307 0.005952417 0.024413165 0.10353106 -0.06778518 0.00069301255 0.01900256 0.0007404562
0.021602703 0.04010404 -0.026174927 0.0002878095 0.013370894 0.0020168808 0.006150563 0.0072914883
0.006926171 0.052095566 0.05393507 0.05252601 0.032876886 0.0059730406 0.005998741 -0.08222389
0.005995495 -0.006429291 -0.039971642 -0.0404748 0.007081155 -0.015320703 -0.01747525 0.059934232
-0.0069746845 0.002000932 0.012905894 0.012440757 0.019424748 0.05447647 -0.046436068 -0.06257989
-0.09495954 0.017053911 0.0060011097 0.02606146 0.05950429 0.06553615 0.004357391 0.03212791
0.04916426 -0.0008563476 0.005981216 0.014741915 0.058276277 0.017434008 0.005986607 -0.017302658
-0.20000426 0.045060076 0.04332378 0.005076468 0.022980642 0.013224354 0.03654631 0.09345283
0.005951393 0.0066905892 0.0045159752 0.005606501 -0.001127275 0.0654072 0.05368407 -0.13279112
0.06186524 0.14644486 0.042377174 0.0146872755 -0.00028165377 0.01486372 0.0029473896 0.02911998
0.0051891296 0.06033021 0.14982226 0.13309228 0.005897436 0.014601261 0.037684463 0.005734086
0.0059472593 0.013988045 0.11160285 0.012128712 0.040728547 0.005953082 0.0048710885 0.04357611
0.012779359 0.0023092006 -0.19169985 0.0059809377 0.018677603 0.011625203 0.04227351 0.04566322
0.004114095 0.005992228 -0.070980586 0.01558693 0.010502121 0.00424259 0.02743025 0.08044557
-0.003250954 0.021988101 0.021145005 0.011505636 0.005427637 0.004361029 -0.032016862 -0.11810395
-0.001376061 0.064564146 0.00043101172 -0.07293833 0.0059964494 -0.004275534 -0.07098809 0.00905776
0.0059503647 -0.043452248 0.039796818 0.022805404 -0.15090498 0.0020154994 0.08359404 0.0014502088
0.060022056 0.0058809626 -0.16299786 0.03035343 0.020434137 0.020853793 0.05352145 0.11614444
0.009114481 0.008552318 0.082659505 0.08105095 0.020513827 0.0059999945 0.0033947027 0.07825497
-0.2114974 -0.076573074 0.0022910014 0.06041838 -0.113134645 0.03407594 0.081209175 0.04836501
0.005993412 -0.09269981 -0.03546292 0.006597202 -0.09473106 0.009711458 0.07605888 0.07787823
0.016826874 0.0036247007 -0.10838003 0.0025379 0.0059686215 0.028449 0.11806983 0.005985017
0.01843299 -0.07050987 0.00073261466 -0.20542313 0.014005435 -0.04370351 0.027156573 0.015008661
-0.13223462 0.15445429 0.01848688 0.1745856 0.0059959227 0.051353212 -0.12301129 0.021529494
0.07503866 -0.2643943 -0.11523561 0.09094822 0.008478412 0.1500009 -0.029109264 0.0034339824
0.09753512 0.07250299 0.011828064 0.08416543 0.014691235 0.08858927 0.025974957 -0.0036594856
0.042045772 0.006413421 0.025741752 -0.036283307 0.010748306 0.0066942535 0.04402194 0.0059931655
-0.06761017 0.008068329 0.005994668 0.018462809 -0.025181597 0.0016805932 0.0034056164 -0.14984033
00000000: 9a97 7c3d a797 943e 5f28 2b3a 7305 e5bd
00000010: 4cf1 b73a f313 b13d 5d0e 0f3e e495 c03d
00000020: 50a2 043e 5291 303d 8583 8e3d 33da 4e3c
00000030: fe93 083e ba29 ba3c 9684 d53c 705a 1cbd
00000040: 47e0 50be b643 31be 1a10 c43b e61d 19bd
00000050: b70e 243d b6a1 853a c649 cabd 80d0 403b
00000060: d9bf c23b 4379 35bd d399 c33b 4a44 b63b
00000070: 5d23 913b a619 5fbd 7ed7 ed3c 2cae 3a3d
00000080: d12e 46bb 7e0c c33b 1efe c73c 1808 d43d
00000090: f5d2 8abd 49ab 353a 42ab 9b3c 2d1b 423a
000000a0: 27f8 b03c 2244 243d cd6c d6bc 23e5 9639
000000b0: 9811 5b3c a52d 043b a98a c93b 70ed ee3b
000000c0: eff4 e23b 2962 553d 05eb 5c3d 8325 573d
000000d0: eaa9 063d 7fb9 c33b 1691 c43b 0065 a8bd
000000e0: db75 c43b cdac d2bb 4eb9 23bd e7c8 25bd
000000f0: 0909 e83b b003 7bbc 4128 8fbc 997d 753d
00000100: e58b e4bb 1222 033b 3e73 533c 51d4 4b3c
00000110: a620 9f3c b822 5f3d bf33 3ebd e329 80bd
00000120: 267a c2bd a5b4 8b3c f5a4 c43b d87e d53c
00000130: c5ba 733d d137 863d 72c8 8e3b 8e98 033d
00000140: 7760 493d 847c 60ba 14fe c33b 1388 713c
00000150: 1bb3 6e3d c4d1 8e3c 4d2b c43b 4ebe 8dbc
00000160: ebcd 4cbe ea90 383d 4774 313d 8058 a63b
00000170: e641 bc3c f6aa 583c 95b1 153d 3364 bf3d
00000180: e703 c33b bb3c db3b bffa 933b bdb6 b73b
00000190: 13c1 93ba 36f4 853d d4e3 5b3d 65fa 07be
000001a0: 6866 7d3d a4f5 153e b093 2d3d e6a2 703c
000001b0: eeaa 93b9 f686 733c fe28 413b 068d ee3c
000001c0: 9309 aa3b cf1c 773d 026b 193e 5849 083e
000001d0: 473f c13b 213a 6f3c 065b 1a3d 00e5 bb3b
000001e0: 3ae1 c23b 1d2e 653c 0990 e43d 81b7 463c
000001f0: fad2 263d 1212 c33b a79d 9f3b dd7c 323d
00000200: 8460 513c f555 173b f74c 44be befb c33b
00000210: c601 993c a377 3e3c fd26 2d3d 5b09 3b3d
00000220: 88cf 863b 745a c43b 455e 91bd 5360 7f3c
00000230: 1711 2c3c 6d05 8b3b 67b5 e03c a6c0 a43d
00000240: f50d 55bb 6420 b43c 4a38 ad3c 2382 3c3c
00000250: 52da b13b f6e6 8e3b 1d24 03bd 7ce0 f1bd
00000260: f25c b4ba 353a 843d 6af9 e139 b160 95bd
00000270: dd7d c43b c719 8cbb 3462 91bd 0067 143c
00000280: 47fb c23b fcfa 31bd fd01 233d 66d2 ba3c
00000290: d686 1abe 7816 043b 5a33 ab3d ef14 be3a
000002a0: b0d9 753d 17b5 c03b e9e8 26be c2a7 f83c
000002b0: 7e65 a73c 93d5 aa3c 4f39 5b3d 23dd ed3d
000002c0: e754 153c 061f 0c3c 6349 a93d 0afe a53d
000002d0: 9d0c a83c 9a9b c43b a979 5e3b 2444 a03d
000002e0: c692 58be 58d2 9cbd a024 163b 4379 773d
000002f0: 23b3 e7bd 3693 0b3d ff50 a63d 641a 463d
00000300: 6264 c43b 66d9 bdbd 9141 11bd 572d d83b
00000310: 5c02 c2bd cf1c 1f3c c2c4 9b3d 9f7e 9f3d
00000320: 83d8 893c 638c 6d3b 59f6 ddbd e652 263b
00000330: 6d94 c33b e10d e93c 98ce f13d f61d c43b
00000340: c800 973c 7b67 90bd f00c 403a 715a 52be
00000350: 0d77 653c 7402 33bd 7677 de3c e3e6 753c
00000360: 8368 07be 4429 1e3e cc71 973c 91c6 323e
00000370: 7279 c43b bf57 523d 58ed fbbd 9f5e b03c
00000380: dead 993d b15e 87be a600 ecbd 0f43 ba3d
00000390: 0ae9 0a3c d699 193e 8d76 eebc aa0c 613b
000003a0: 7ec0 c73d 737c 943d 7fca 413c ed5e ac3d
000003b0: 81b3 703c 4b6e b53d 6fc9 d43c fbd3 6fbb
000003c0: 3038 2c3d ad27 d23b 5ee0 d23c ce9d 14bd
000003d0: aa19 303c 785b db3b 5a50 343d 5162 c43b
000003e0: 3377 8abd 0631 043c ec6e c43b 513f 973c
000003f0: a349 cebc 5a47 dc3a c330 5f3b be6f 19be

arith.constant11 f4 [16, 8, 64]
0.0003451748 0.011819843 0.00093700865 0.023884743 -0.0060823723 0.066144936 0.026238298 0.005998223
-0.03682171 0.09835519 -0.028541736 0.0059876903 0.0073864097 0.00085816364 0.005343022 -0.0043577817
0.0060035093 0.009308101 0.0060037524 0.0055325693 0.0121897 0.0059897522 0.0060038003 0.021330303
0.0007477718 0.0045949123 0.02859376 -0.033342518 0.0124464845 -0.002809378 -0.0059365802 0.015894104
-0.0038314103 0.005998455 0.0059935427 0.0072046476 0.13475586 0.0022007495 0.021066826 0.023976475
0.0020971205 0.005953088 0.00092141115 0.018198067 0.005790893 0.0069487924 0.015945798 0.005991972
-0.0035515372 0.0060030837 -0.0043750615 -0.012850781 0.016410416 0.0050209 0.005998041 0.003466601
0.0202037 0.050226435 -0.015164592 0.04898574 -0.0016387657 -0.039832164 0.001180262 0.014498351
0.00599734 0.0057217055 0.0060019516 0.0059397756 0.005031906 0.015954955 0.012131068 0.014924616
-0.0072140335 0.01438617 0.008488579 0.0059321495 0.021760171 -0.0012216747 0.0019126991 0.005999959
0.0061037363 -0.0060901623 0.005725075 0.027542485 0.0059005404 0.0072273477 0.0055049667 0.024487529
-0.0024417995 0.0053824303 0.008344014 0.0049459934 0.005268713 0.004173674 0.0067292466 -0.106317356
0.005251433 0.009130474 0.005380679 0.030223172 0.00463108 -0.027539141 0.006004202 0.0016060699
0.00056597276 0.0069042454 0.0051097777 -0.02353341 0.0031446384 0.025113646 0.003666777 0.006190121
0.010961406 0.00108062 0.006001168 0.005956985 0.049274 -0.0352869 -0.0036049776 0.0059957206
0.004191658 0.027554616 0.0049087727 0.006000401 0.015044654 0.010757809 0.0059960536 0.00011561145
0.0063330117 0.040572286 0.006003704 0.005891517 0.0100282375 0.0024912653 0.0011325171 0.031655062
0.00745673 0.015792767 0.006002043 0.005119304 -0.0041444814 -0.004572684 0.017359722 -0.012820044
0.029159855 0.010101337 0.018829908 0.0059629297 0.005984891 0.013851059 0.013437069 -0.012450382
0.005997858 0.020838348 -0.018286834 -0.0058393236 0.006002407 0.0058749407 0.0075573903 0.17401567
0.008173423 -0.017705206 0.009876326 0.0063686464 0.0059920256 0.009771787 0.0016397923 0.035472278
0.0019884212 0.004748944 0.0053615053 0.019629171 0.00599961 0.036041856 -0.03618562 0.018583264
-0.014387752 -0.00061754975 0.0230608 0.028193472 0.0057763043 0.008559409 -0.040483065 0.0018832013
0.004080874 0.025018707 0.047024913 0.01642301 -0.0015530512 0.039633423 -0.005201654 0.13727687
-0.020794667 0.0006676936 0.0060016243 0.005960882 -0.018118568 -0.054197636 0.0059473105 0.054314785
-0.022828927 0.005919547 0.005998911 -0.0040692873 -0.07678672 0.01473418 -0.031126268 -0.0039393203
0.005953611 0.0257077 -0.080665626 -0.030159287 -0.01359186 -0.010751681 0.0036016111 0.03655298
0.020218208 -0.004324262 0.0053012725 0.016815709 0.04234661 -0.0013041904 0.01637766 0.07143045
0.005311569 -0.0027068532 -0.004626349 0.010493743 0.041669223 0.10588614 0.00600407 0.0016058285
0.05300981 -0.025196115 0.005960241 0.020612258 0.006004233 -0.0076287794 0.005934043 -0.09065752
0.0052375454 -0.015399248 0.013885917 -0.093540415 -0.007943277 0.005980184 0.0004913176 0.024746474
0.0049981326 0.005967721 0.010317164 -0.011981193 0.015586816 0.025405772 0.02309097 0.020532167
00000000: 94f8 b439 04a8 413c 96a1 753a f0a9 c33c
00000010: a34e c7bb ff76 873d b3f1 d63c be8c c43b
00000020: 5dd2 16bd 726e c93d 5cd0 e9bc 6334 c43b
00000030: b209 f23b 63f6 603a 8414 af3b b9cb 8ebb
00000040: 16b9 c43b 0181 183c 20bb c43b 8e4a b53b
00000050: 4fb7 473c af45 c43b 87bb c43b e3bc ae3c
00000060: 1e06 443a eb90 963b 763d ea3c 2a92 08bd
00000070: 57ec 4b3c 8b1d 38bb a587 c2bb 5a34 823c
00000080: 6618 7bbb b08e c43b 7b65 c43b f714 ec3b
00000090: 71fd 093e 733a 103b 5694 ac3c 506a c43c
000000a0: d86f 093b 1f12 c33b db8a 713a 1d14 953c
000000b0: 88c1 bd3b b2b2 e33b c3a0 823c 4e58 c43b
000000c0: e8c0 68bb 84b5 c43b ad5c 8fbb 158c 52bc
000000d0: 236f 863c 5d86 a43b 378b c43b ea2f 633b
000000e0: 3b82 a53c 3cba 4d3d e974 78bc 45a5 483d
000000f0: dacb d6ba 0d27 23bd 05b3 9a3a 7e8a 6d3c
00000100: 5685 c43b 257d bb3b 05ac c43b 73a2 c23b
00000110: b0e2 a43b f7b3 823c 63c1 463c 6086 743c
00000120: b363 ecbb f8b3 6b3c ae13 0b3c 7a62 c23b
00000130: 6342 b23c 9a20 a0ba 88b3 fa3a 4e9b c43b
00000140: da01 c83b fc8f c7bb 6999 bb3b c7a0 e13c
00000150: 5259 c13b 63d3 ec3b 0263 b43b 129a c83c
00000160: 9906 20bb 195f b03b 55b5 083c 0012 a23b
00000170: 2ba5 ac3b 51c3 883b 0381 dc3b eabc d9bd
00000180: 3614 ac3b fc97 153c 6850 b03b 9696 f73c
00000190: 51c0 973b c499 e1bc e6be c43b c382 d23a
000001a0: ca5d 143a 023d e23b ec6f a73b 23c9 c0bc
000001b0: 4716 4e3b 22bb cd3c 4f4e 703b 80d6 ca3b
000001c0: 7897 333c 97a3 8d3a 72a5 c43b d032 c33b
000001d0: 89d3 493d ff88 10bd 7d41 6cbb c077 c43b
000001e0: 2d5a 893b 38ba e13c c5d9 a03b 039f c43b
000001f0: da7d 763c 8541 303c 8b7a c43b 6d74 f238
00000200: 2785 cf3b 202f 263d b8ba c43b a00d c13b
00000210: 7a4d 243c 7f44 233b f870 943a bda8 013d
00000220: 9657 f43b d55f 813c c9ac c43b d6bf a73b
00000230: 6ece 87bb 74d6 95bb fa35 8e3c 290b 52bc
00000240: a6e0 ee3c 1480 253c 2e41 9a3c ae64 c33b
00000250: e81c c43b 8def 623c 2727 5c3c b0fc 4bbc
00000260: ae89 c43b 2fb5 aa3c 45ce 95bc cc57 bfbb
00000270: d7af c43b 9382 c03b fca3 f73b 2a31 323e
00000280: d2e9 053c 820a 91bc 50d0 213c 14b0 d03b
00000290: c158 c43b d819 203c 4dee d63a 614b 113d
000002a0: 2c50 023b 089d 9b3b 91af af3b 5bcd a03c
000002b0: 6098 c43b a0a0 133d 5f37 14bd ee3b 983c
000002c0: 9bba 6bbc 10e3 21ba 01ea bc3c fff5 e63c
000002d0: 2747 bd3b c33c 0c3c 92d1 25bd c0d5 f63a
000002e0: dab8 853b 08f4 cc3c 329d 403d 8c89 863c
000002f0: c08f cbba a856 223d a372 aabb 4f92 0c3e
00000300: 9459 aabc 2908 2f3a 46a9 c43b 8153 c33b
00000310: 646d 94bc 57fe 5dbd a8e1 c23b 2e79 5e3d
00000320: bb03 bbbc c2f8 c13b 8392 c43b a857 85bb
00000330: 5b42 9dbd a167 713c 84fc febc 6a15 81bb
00000340: 8216 c33b f498 d23c 0534 a5bd 9c10 f7bc
00000350: 65b0 5ebc d227 30bc 0209 6c3b 94b8 153d
00000360: a8a0 a53c 8ab2 8dbb 4cb6 ad3b 19c1 893c
00000370: a473 2d3d 5ef1 aaba 712a 863c 214a 923d
00000380: ac0c ae3b 7665 31bb a198 97bb f3ed 2b3c
00000390: 59ad 2a3d d5da d83d cabd c43b aa7a d23a
000003a0: d120 593d 1568 cebc 204e c33b 0adb a83c
000003b0: 28bf c43b d7fa f9bb 5c72 c23b a6aa b9bd
000003c0: b79f ab3b 214d 7cbc c281 633c 1e92 bfbd
000003d0: 8524 02bc 6bf5 c33b c4cb 003a 1eb9 ca3c
000003e0: 60c7 a33b df8c c33b 5209 293c c44c 44bc
000003f0: d85f 7f3c c41f d03c 4629 bd3c 1333 a83c

arith.constant12 f4 [8]
2.4669098e-05 8.7881e-05 -0.00040069516 -7.1377646e-05 -1.5341533e-05 0.0001525058 9.2249575e-05 0.00013011014
00000000: 7cf0 ce37 c14c b838 6514 d2b9 95b0 95b8
00000010: b1b1 80b7 f7e9 1f39 1d76 c138 2d6e 0839
