app/src/main/assets/model/model.tflite (tflite, 925932 bytes, 48 tensors)

based_model/cnn/batch_normalization/FusedBatchNormV3/ReadVariableOp f4 [32]
0.0 0.0 0.0 0.0 0.0 0.0 0.0 0.0
0.0 0.0 0.0 0.0 0.0 0.0 0.0 0.0
0.0 0.0 0.0 0.0 0.0 0.0 0.0 0.0
0.0 0.0 0.0 0.0 0.0 0.0 0.0 0.0
00000000: 0000 0000 0000 0000 0000 0000 0000 0000
00000010: 0000 0000 0000 0000 0000 0000 0000 0000
00000020: 0000 0000 0000 0000 0000 0000 0000 0000
00000030: 0000 0000 0000 0000 0000 0000 0000 0000
00000040: 0000 0000 0000 0000 0000 0000 0000 0000
00000050: 0000 0000 0000 0000 0000 0000 0000 0000
00000060: 0000 0000 0000 0000 0000 0000 0000 0000
00000070: 0000 0000 0000 0000 0000 0000 0000 0000

based_model/cnn/batch_normalization_1/FusedBatchNormV3/ReadVariableOp f4 [64]
0.0 0.0 0.0 0.0 0.0 0.0 0.0 0.0
0.0 0.0 0.0 0.0 0.0 0.0 0.0 0.0
0.0 0.0 0.0 0.0 0.0 0.0 0.0 0.0
0.0 0.0 0.0 0.0 0.0 0.0 0.0 0.0
0.0 0.0 0.0 0.0 0.0 0.0 0.0 0.0
0.0 0.0 0.0 0.0 0.0 0.0 0.0 0.0
0.0 0.0 0.0 0.0 0.0 0.0 0.0 0.0
0.0 0.0 0.0 0.0 0.0 0.0 0.0 0.0
00000000: 0000 0000 0000 0000 0000 0000 0000 0000
00000010: 0000 0000 0000 0000 0000 0000 0000 0000
00000020: 0000 0000 0000 0000 0000 0000 0000 0000
00000030: 0000 0000 0000 0000 0000 0000 0000 0000
00000040: 0000 0000 0000 0000 0000 0000 0000 0000
00000050: 0000 0000 0000 0000 0000 0000 0000 0000
00000060: 0000 0000 0000 0000 0000 0000 0000 0000
00000070: 0000 0000 0000 0000 0000 0000 0000 0000
00000080: 0000 0000 0000 0000 0000 0000 0000 0000
00000090: 0000 0000 0000 0000 0000 0000 0000 0000
000000a0: 0000 0000 0000 0000 0000 0000 0000 0000
000000b0: 0000 0000 0000 0000 0000 0000 0000 0000
000000c0: 0000 0000 0000 0000 0000 0000 0000 0000
000000d0: 0000 0000 0000 0000 0000 0000 0000 0000
000000e0: 0000 0000 0000 0000 0000 0000 0000 0000
000000f0: 0000 0000 0000 0000 0000 0000 0000 0000

based_model/cnn/batch_normalization/FusedBatchNormV3 f4 [32]
0.99950033 0.99950033 0.99950033 0.99950033 0.99950033 0.99950033 0.99950033 0.99950033
0.99950033 0.99950033 0.99950033 0.99950033 0.99950033 0.99950033 0.99950033 0.99950033
0.99950033 0.99950033 0.99950033 0.99950033 0.99950033 0.99950033 0.99950033 0.99950033
0.99950033 0.99950033 0.99950033 0.99950033 0.99950033 0.99950033 0.99950033 0.99950033
00000000: 41df 7f3f 41df 7f3f 41df 7f3f 41df 7f3f
00000010: 41df 7f3f 41df 7f3f 41df 7f3f 41df 7f3f
00000020: 41df 7f3f 41df 7f3f 41df 7f3f 41df 7f3f
00000030: 41df 7f3f 41df 7f3f 41df 7f3f 41df 7f3f
00000040: 41df 7f3f 41df 7f3f 41df 7f3f 41df 7f3f
00000050: 41df 7f3f 41df 7f3f 41df 7f3f 41df 7f3f
00000060: 41df 7f3f 41df 7f3f 41df 7f3f 41df 7f3f
00000070: 41df 7f3f 41df 7f3f 41df 7f3f 41df 7f3f

based_model/cnn/batch_normalization_1/FusedBatchNormV3 f4 [64]
0.99950033 0.99950033 0.99950033 0.99950033 0.99950033 0.99950033 0.99950033 0.99950033
0.99950033 0.99950033 0.99950033 0.99950033 0.99950033 0.99950033 0.99950033 0.99950033
0.99950033 0.99950033 0.99950033 0.99950033 0.99950033 0.99950033 0.99950033 0.99950033
0.99950033 0.99950033 0.99950033 0.99950033 0.99950033 0.99950033 0.99950033 0.99950033
0.99950033 0.99950033 0.99950033 0.99950033 0.99950033 0.99950033 0.99950033 0.99950033
0.99950033 0.99950033 0.99950033 0.99950033 0.99950033 0.99950033 0.99950033 0.99950033
0.99950033 0.99950033 0.99950033 0.99950033 0.99950033 0.99950033 0.99950033 0.99950033
0.99950033 0.99950033 0.99950033 0.99950033 0.99950033 0.99950033 0.99950033 0.99950033
00000000: 41df 7f3f 41df 7f3f 41df 7f3f 41df 7f3f
00000010: 41df 7f3f 41df 7f3f 41df 7f3f 41df 7f3f
00000020: 41df 7f3f 41df 7f3f 41df 7f3f 41df 7f3f
00000030: 41df 7f3f 41df 7f3f 41df 7f3f 41df 7f3f
00000040: 41df 7f3f 41df 7f3f 41df 7f3f 41df 7f3f
00000050: 41df 7f3f 41df 7f3f 41df 7f3f 41df 7f3f
00000060: 41df 7f3f 41df 7f3f 41df 7f3f 41df 7f3f
00000070: 41df 7f3f 41df 7f3f 41df 7f3f 41df 7f3f
00000080: 41df 7f3f 41df 7f3f 41df 7f3f 41df 7f3f
00000090: 41df 7f3f 41df 7f3f 41df 7f3f 41df 7f3f
000000a0: 41df 7f3f 41df 7f3f 41df 7f3f 41df 7f3f
000000b0: 41df 7f3f 41df 7f3f 41df 7f3f 41df 7f3f
000000c0: 41df 7f3f 41df 7f3f 41df 7f3f 41df 7f3f
000000d0: 41df 7f3f 41df 7f3f 41df 7f3f 41df 7f3f
000000e0: 41df 7f3f 41df 7f3f 41df 7f3f 41df 7f3f
000000f0: 41df 7f3f 41df 7f3f 41df 7f3f 41df 7f3f

based_model/cnn/batch_normalization/FusedBatchNormV3/ReadVariableOp1 f4 [32]
0.0 0.0 0.0 0.0 0.0 0.0 0.0 0.0
0.0 0.0 0.0 0.0 0.0 0.0 0.0 0.0
0.0 0.0 0.0 0.0 0.0 0.0 0.0 0.0
0.0 0.0 0.0 0.0 0.0 0.0 0.0 0.0
00000000: 0000 0000 0000 0000 0000 0000 0000 0000
00000010: 0000 0000 0000 0000 0000 0000 0000 0000
00000020: 0000 0000 0000 0000 0000 0000 0000 0000
00000030: 0000 0000 0000 0000 0000 0000 0000 0000
00000040: 0000 0000 0000 0000 0000 0000 0000 0000
00000050: 0000 0000 0000 0000 0000 0000 0000 0000
00000060: 0000 0000 0000 0000 0000 0000 0000 0000
00000070: 0000 0000 0000 0000 0000 0000 0000 0000

based_model/cnn/batch_normalization_1/FusedBatchNormV3/ReadVariableOp1 f4 [64]
0.0 0.0 0.0 0.0 0.0 0.0 0.0 0.0
0.0 0.0 0.0 0.0 0.0 0.0 0.0 0.0
0.0 0.0 0.0 0.0 0.0 0.0 0.0 0.0
0.0 0.0 0.0 0.0 0.0 0.0 0.0 0.0
0.0 0.0 0.0 0.0 0.0 0.0 0.0 0.0
0.0 0.0 0.0 0.0 0.0 0.0 0.0 0.0
0.0 0.0 0.0 0.0 0.0 0.0 0.0 0.0
0.0 0.0 0.0 0.0 0.0 0.0 0.0 0.0
00000000: 0000 0000 0000 0000 0000 0000 0000 0000
00000010: 0000 0000 0000 0000 0000 0000 0000 0000
00000020: 0000 0000 0000 0000 0000 0000 0000 0000
00000030: 0000 0000 0000 0000 0000 0000 0000 0000
00000040: 0000 0000 0000 0000 0000 0000 0000 0000
00000050: 0000 0000 0000 0000 0000 0000 0000 0000
00000060: 0000 0000 0000 0000 0000 0000 0000 0000
00000070: 0000 0000 0000 0000 0000 0000 0000 0000
00000080: 0000 0000 0000 0000 0000 0000 0000 0000
00000090: 0000 0000 0000 0000 0000 0000 0000 0000
000000a0: 0000 0000 0000 0000 0000 0000 0000 0000
000000b0: 0000 0000 0000 0000 0000 0000 0000 0000
000000c0: 0000 0000 0000 0000 0000 0000 0000 0000
000000d0: 0000 0000 0000 0000 0000 0000 0000 0000
000000e0: 0000 0000 0000 0000 0000 0000 0000 0000
000000f0: 0000 0000 0000 0000 0000 0000 0000 0000

based_model/cnn/batch_normalization/FusedBatchNormV36 f4 [32]
0.99950033 0.99950033 0.99950033 0.99950033 0.99950033 0.99950033 0.99950033 0.99950033
0.99950033 0.99950033 0.99950033 0.99950033 0.99950033 0.99950033 0.99950033 0.99950033
0.99950033 0.99950033 0.99950033 0.99950033 0.99950033 0.99950033 0.99950033 0.99950033
0.99950033 0.99950033 0.99950033 0.99950033 0.99950033 0.99950033 0.99950033 0.99950033
00000000: 41df 7f3f 41df 7f3f 41df 7f3f 41df 7f3f
00000010: 41df 7f3f 41df 7f3f 41df 7f3f 41df 7f3f
00000020: 41df 7f3f 41df 7f3f 41df 7f3f 41df 7f3f
00000030: 41df 7f3f 41df 7f3f 41df 7f3f 41df 7f3f
00000040: 41df 7f3f 41df 7f3f 41df 7f3f 41df 7f3f
00000050: 41df 7f3f 41df 7f3f 41df 7f3f 41df 7f3f
00000060: 41df 7f3f 41df 7f3f 41df 7f3f 41df 7f3f
00000070: 41df 7f3f 41df 7f3f 41df 7f3f 41df 7f3f

based_model/cnn/batch_normalization_1/FusedBatchNormV36 f4 [64]
0.99950033 0.99950033 0.99950033 0.99950033 0.99950033 0.99950033 0.99950033 0.99950033
0.99950033 0.99950033 0.99950033 0.99950033 0.99950033 0.99950033 0.99950033 0.99950033
0.99950033 0.99950033 0.99950033 0.99950033 0.99950033 0.99950033 0.99950033 0.99950033
0.99950033 0.99950033 0.99950033 0.99950033 0.99950033 0.99950033 0.99950033 0.99950033
0.99950033 0.99950033 0.99950033 0.99950033 0.99950033 0.99950033 0.99950033 0.99950033
0.99950033 0.99950033 0.99950033 0.99950033 0.99950033 0.99950033 0.99950033 0.99950033
0.99950033 0.99950033 0.99950033 0.99950033 0.99950033 0.99950033 0.99950033 0.99950033
0.99950033 0.99950033 0.99950033 0.99950033 0.99950033 0.99950033 0.99950033 0.99950033
00000000: 41df 7f3f 41df 7f3f 41df 7f3f 41df 7f3f
00000010: 41df 7f3f 41df 7f3f 41df 7f3f 41df 7f3f
00000020: 41df 7f3f 41df 7f3f 41df 7f3f 41df 7f3f
00000030: 41df 7f3f 41df 7f3f 41df 7f3f 41df 7f3f
00000040: 41df 7f3f 41df 7f3f 41df 7f3f 41df 7f3f
00000050: 41df 7f3f 41df 7f3f 41df 7f3f 41df 7f3f
00000060: 41df 7f3f 41df 7f3f 41df 7f3f 41df 7f3f
00000070: 41df 7f3f 41df 7f3f 41df 7f3f 41df 7f3f
00000080: 41df 7f3f 41df 7f3f 41df 7f3f 41df 7f3f
00000090: 41df 7f3f 41df 7f3f 41df 7f3f 41df 7f3f
000000a0: 41df 7f3f 41df 7f3f 41df 7f3f 41df 7f3f
000000b0: 41df 7f3f 41df 7f3f 41df 7f3f 41df 7f3f
000000c0: 41df 7f3f 41df 7f3f 41df 7f3f 41df 7f3f
000000d0: 41df 7f3f 41df 7f3f 41df 7f3f 41df 7f3f
000000e0: 41df 7f3f 41df 7f3f 41df 7f3f 41df 7f3f
000000f0: 41df 7f3f 41df 7f3f 41df 7f3f 41df 7f3f

based_model/cnn/batch_normalization/FusedBatchNormV3/ReadVariableOp2 f4 [32]
0.0 0.0 0.0 0.0 0.0 0.0 0.0 0.0
0.0 0.0 0.0 0.0 0.0 0.0 0.0 0.0
0.0 0.0 0.0 0.0 0.0 0.0 0.0 0.0
0.0 0.0 0.0 0.0 0.0 0.0 0.0 0.0
00000000: 0000 0000 0000 0000 0000 0000 0000 0000
00000010: 0000 0000 0000 0000 0000 0000 0000 0000
00000020: 0000 0000 0000 0000 0000 0000 0000 0000
00000030: 0000 0000 0000 0000 0000 0000 0000 0000
00000040: 0000 0000 0000 0000 0000 0000 0000 0000
00000050: 0000 0000 0000 0000 0000 0000 0000 0000
00000060: 0000 0000 0000 0000 0000 0000 0000 0000
00000070: 0000 0000 0000 0000 0000 0000 0000 0000

based_model/cnn/batch_normalization_1/FusedBatchNormV3/ReadVariableOp2 f4 [64]
0.0 0.0 0.0 0.0 0.0 0.0 0.0 0.0
0.0 0.0 0.0 0.0 0.0 0.0 0.0 0.0
0.0 0.0 0.0 0.0 0.0 0.0 0.0 0.0
0.0 0.0 0.0 0.0 0.0 0.0 0.0 0.0
0.0 0.0 0.0 0.0 0.0 0.0 0.0 0.0
0.0 0.0 0.0 0.0 0.0 0.0 0.0 0.0
0.0 0.0 0.0 0.0 0.0 0.0 0.0 0.0
0.0 0.0 0.0 0.0 0.0 0.0 0.0 0.0
00000000: 0000 0000 0000 0000 0000 0000 0000 0000
00000010: 0000 0000 0000 0000 0000 0000 0000 0000
00000020: 0000 0000 0000 0000 0000 0000 0000 0000
00000030: 0000 0000 0000 0000 0000 0000 0000 0000
00000040: 0000 0000 0000 0000 0000 0000 0000 0000
00000050: 0000 0000 0000 0000 0000 0000 0000 0000
00000060: 0000 0000 0000 0000 0000 0000 0000 0000
00000070: 0000 0000 0000 0000 0000 0000 0000 0000
00000080: 0000 0000 0000 0000 0000 0000 0000 0000
00000090: 0000 0000 0000 0000 0000 0000 0000 0000
000000a0: 0000 0000 0000 0000 0000 0000 0000 0000
000000b0: 0000 0000 0000 0000 0000 0000 0000 0000
000000c0: 0000 0000 0000 0000 0000 0000 0000 0000
000000d0: 0000 0000 0000 0000 0000 0000 0000 0000
000000e0: 0000 0000 0000 0000 0000 0000 0000 0000
000000f0: 0000 0000 0000 0000 0000 0000 0000 0000

based_model/cnn/batch_normalization_1/FusedBatchNormV3/ReadVariableOp_1 f4 [64]
1.0 1.0 1.0 1.0 1.0 1.0 1.0 1.0
1.0 1.0 1.0 1.0 1.0 1.0 1.0 1.0
1.0 1.0 1.0 1.0 1.0 1.0 1.0 1.0
1.0 1.0 1.0 1.0 1.0 1.0 1.0 1.0
1.0 1.0 1.0 1.0 1.0 1.0 1.0 1.0
1.0 1.0 1.0 1.0 1.0 1.0 1.0 1.0
1.0 1.0 1.0 1.0 1.0 1.0 1.0 1.0
1.0 1.0 1.0 1.0 1.0 1.0 1.0 1.0
00000000: 0000 803f 0000 803f 0000 803f 0000 803f
00000010: 0000 803f 0000 803f 0000 803f 0000 803f
00000020: 0000 803f 0000 803f 0000 803f 0000 803f
00000030: 0000 803f 0000 803f 0000 803f 0000 803f
00000040: 0000 803f 0000 803f 0000 803f 0000 803f
00000050: 0000 803f 0000 803f 0000 803f 0000 803f
00000060: 0000 803f 0000 803f 0000 803f 0000 803f
00000070: 0000 803f 0000 803f 0000 803f 0000 803f
00000080: 0000 803f 0000 803f 0000 803f 0000 803f
00000090: 0000 803f 0000 803f 0000 803f 0000 803f
000000a0: 0000 803f 0000 803f 0000 803f 0000 803f
000000b0: 0000 803f 0000 803f 0000 803f 0000 803f
000000c0: 0000 803f 0000 803f 0000 803f 0000 803f
000000d0: 0000 803f 0000 803f 0000 803f 0000 803f
000000e0: 0000 803f 0000 803f 0000 803f 0000 803f
000000f0: 0000 803f 0000 803f 0000 803f 0000 803f

based_model/cnn/batch_normalization/FusedBatchNormV3/ReadVariableOp_1 f4 [32]
1.0 1.0 1.0 1.0 1.0 1.0 1.0 1.0
1.0 1.0 1.0 1.0 1.0 1.0 1.0 1.0
1.0 1.0 1.0 1.0 1.0 1.0 1.0 1.0
1.0 1.0 1.0 1.0 1.0 1.0 1.0 1.0
00000000: 0000 803f 0000 803f 0000 803f 0000 803f
00000010: 0000 803f 0000 803f 0000 803f 0000 803f
00000020: 0000 803f 0000 803f 0000 803f 0000 803f
00000030: 0000 803f 0000 803f 0000 803f 0000 803f
00000040: 0000 803f 0000 803f 0000 803f 0000 803f
00000050: 0000 803f 0000 803f 0000 803f 0000 803f
00000060: 0000 803f 0000 803f 0000 803f 0000 803f
00000070: 0000 803f 0000 803f 0000 803f 0000 803f

arith.constant f4 [8]
0.06156429 0.015312226 -0.039106615 0.039820068 -0.061127152 -0.0076395017 -0.012800257 -0.004964982
00000000: d62a 7c3d 21e0 7a3c 422e 20bd 5e1a 233d
00000010: 7760 7abd c954 fabb 2bb8 51bc 4ab1 a2bb

arith.constant1 f4 [4096, 8]
-0.015670696 0.0011749291 0.0183275 -0.029787581 -0.012028486 0.009748048 0.031138327 0.031003846
-0.030702567 -0.010702785 0.011038674 0.045740202 -0.041227102 0.009536509 0.02429132 0.042821027
-0.06705498 -0.0952552 -0.045742106 -0.0004725005 0.05066278 -0.052109472 -0.024413206 -0.009968335
0.006095332 0.021122975 0.03419904 0.029292975 -0.021405475 -0.00074135297 -0.013545443 0.024399692
0.020364257 -0.071604766 1.9934923e-05 0.019659042 -0.0099779125 -0.024485216 0.028481483 0.012731129
0.022267854 0.029050017 -0.031048767 -0.034095492 0.0017165241 0.015949436 -0.01994663 0.045135453
-0.03466315 -0.04557776 -0.016435096 0.028473854 0.008553747 0.027246984 -0.025342425 0.034757677
-0.006771876 -0.024386544 0.0029126452 0.00245472 -0.028497547 -0.024403498 0.022725083 -0.03697894
-0.014871841 -0.0012822162 0.06747507 0.013050207 -0.02531985 -0.03822999 -0.07689571 -0.0033266032
0.010523233 -0.0073182317 0.022940734 -0.0063282824 -0.021393502 0.0023446786 0.007958471 -7.174054e-05
-0.030713618 -0.05066604 0.00088647776 -0.022853985 -0.01853526 0.000901275 0.016398406 0.025155103
0.008135414 0.023330437 0.032230906 0.005551002 -0.03102511 -0.00031974638 0.00867927 0.016126208
-0.032706 0.00669297 0.0025442 -0.022267941 0.008874905 -0.030668948 -0.010680703 0.041128226
0.0032386577 -0.020695105 0.0009895904 0.004269762 0.0007519168 0.013762333 0.03350273 -0.0011774217
0.022605596 -0.009800175 -0.014191409 -0.056640916 0.025457263 -0.002182407 0.06690611 0.052624922
-0.04488371 -0.014634646 0.028422266 0.024486639 0.039257888 0.023910653 0.024743212 0.00017292064
0.02979769 -0.012035679 -0.0056360224 0.026292387 -0.06721074 -0.03894556 0.017209752 -0.009816463
-0.037170928 -0.046717923 -0.022114635 0.017318284 0.010505497 -0.003445576 0.006868118 0.011661474
0.032191984 0.023953678 0.00775661 0.0024424894 -0.028659118 -0.058401275 -0.067831315 0.05769704
0.008083564 -0.0160976 -0.033111576 0.002997363 -0.028996961 -0.016470153 0.013460211 0.04041464
-0.041078523 -0.016077144 0.01765689 -0.008732512 0.02098695 -0.018153131 0.009949892 0.0074797613
0.018653374 0.04728118 -0.02095026 -0.0150101045 0.0012860594 0.033678535 -0.04345142 0.06865858
0.015848003 -0.025140854 -0.007249796 0.0015645869 -0.031426404 -0.02327328 0.037969213 -0.046685804
-0.027944889 0.030899895 0.030788163 0.025270866 -0.0152669065 0.019341825 -0.025159579 -0.030332703
0.015467383 -0.0043032146 -0.020294731 0.02972723 -0.04305019 -0.018356802 0.016649274 -0.0029577035
-0.03804577 -0.009939616 0.010633531 0.031362146 0.028394328 -0.012258071 0.0058102547 0.002726806
-0.034971498 0.010657019 -0.04887513 0.019881357 -0.02961672 0.0031454582 -0.0022515105 -0.006831025
-0.019348001 -0.017745262 0.02073449 -0.008070108 0.0213152 -0.0049165334 0.021737983 0.00017801665
-0.021705741 0.018464185 -0.012805969 0.03777209 0.032378048 0.00073715026 0.032136705 0.022907533
-0.07976616 0.04080065 0.036682073 0.0091617545 0.054381736 -0.07699988 0.05354833 -0.03071572
0.07668509 0.022037094 -0.0431327 -0.01893687 -0.05155691 -0.013781108 0.025568679 -0.0056601474
-0.0076065105 0.026802152 0.034240507 -0.011345238 0.0012809413 -0.00913732 -0.02579986 0.03126611
00000000: d55f 80bc 1400 9a3a 8e23 963c 1605 f4bc
00000010: 2013 45bc 47b6 1f3c ce15 ff3c c7fb fd3c
00000020: f383 fbbc bc5a 2fbc 8edb 343c 145a 3b3d
00000030: c0dd 28bd 053f 1c3c 97fe c63c 1a65 2f3d
00000040: 1f54 89bd 2915 c3bd 135c 3bbd f2b9 f7b9
00000050: c683 4f3d be70 55bd 34fe c7bc 3a52 23bc
00000060: 5abb c73b 170a ad3c 4b14 0c3d d2f7 ef3c
00000070: 895a afbc 5b57 42ba b5ed 5dbc dde1 c73c
00000080: f1d2 a63c 85a5 92bd ec39 a737 000c a13c
00000090: 667a 23bc 3895 c8bc 0052 e93c 3a96 503c
000000a0: 136b b63c 4dfa ed3c fc59 febc b7a7 0bbd
000000b0: fefc e03a 64a8 823c 1d67 a3bc f4df 383d
000000c0: f2fa 0dbd bfaf 3abd e5a2 86bc 0042 e93c
000000d0: 0425 0c3c 1135 df3c eb9a cfbc 115e 0e3d
000000e0: 9de6 ddbb 4ac6 c7bc 14e2 3e3b 5edf 203b
000000f0: b073 e9bc d8e9 c7bc f429 ba3c 3b77 17bd
00000100: 06a9 73bc 0910 a8ba 5f30 8a3d 89d0 553c
00000110: 936b cfbc 0d97 1cbd 7f7b 9dbd 2403 5abb
00000120: a369 2c3c c7cd efbb 35ee bb3c 7b5d cfbb
00000130: 6d41 afbc 2ea9 193b 3f64 023c 6973 96b8
00000140: 209b fbbc 3287 4fbd 8462 683a 4838 bbbc
00000150: 42d7 97bc 8b43 6c3a f355 863c 1312 ce3c
00000160: 664a 053c 791f bf3c 8e04 043d 2ee5 b53b
00000170: 5f28 febc a2a3 a7b9 7f33 0e3c 1c1b 843c
00000180: baf6 05bd b450 db3b 98bc 263b 426b b6bc
00000190: 0d68 113c 723d fbbc 1efe 2ebc 1276 283d
000001a0: a93f 543b c888 a9bc 25b5 813a 5ce9 8b3b
000001b0: 481c 453a 697b 613c 293a 093d b753 9aba
000001c0: 5f2f b93c ea90 20bc 1583 68bc 4e00 68bd
000001d0: c08b d03c b706 0fbb 1206 893d 3b8d 573d
000001e0: fbd7 37bd 27c6 6fbc d0d5 e83c 3498 c83c
000001f0: e1cc 203d 46e0 c33c 47b2 ca3c 0852 3539
00000200: 491a f43c 4c31 45bc 62ae b8bb 2263 d73c
00000210: c9a5 89bd 6185 1fbd 77fb 8c3c 3bd5 20bc
00000220: 8b40 18bd 4b5b 3fbd c029 b5bc 13df 8d3c
00000230: 401f 2c3c 2ccf 61bb f30d e13b c40f 3f3c
00000240: bedb 033d 813a c43c 292b fe3b 2c12 203b
00000250: 87c6 eabc 2d36 6fbd 25eb 8abd bb53 6c3d
00000260: ed70 043c 1ddf 83bc 01a0 07bd 686f 443b
00000270: 098b edbc 6aec 86bc 3888 5c3c d289 253d
00000280: f441 28bd 37b4 83bc 2fa5 903c cf12 0fbc
00000290: d3ec ab3c e0b5 94bc df04 233c c918 f53b
000002a0: f6ce 983c e9a9 413d e19f abbc f1ec 75bc
000002b0: fe90 a83a 81f2 093d 1efa 31bd df9c 8c3d
000002c0: acd3 813c 31f4 cdbc b28f edbb d312 cd3a
000002d0: f9b8 00bd 9ba7 bebc 9b85 1b3d 9d39 3fbd
000002e0: aeec e4bc c721 fd3c 7537 fc3c d904 cf3c
000002f0: 0c22 7abc bf72 9e3c 761b cebc 4a7c f8bc
00000300: e86a 7d3c fb01 8dbb 2341 a6bc 8586 f33c
00000310: 6555 30bd 0161 96bc 0f64 883c 08d6 41bb
00000320: e2d5 1bbd c5d9 22bc 4338 2e3c 9875 003d
00000330: 399b e83c 14d6 48bc f363 be3b 37b4 323b
00000340: 463e 0fbd c79a 2e3c 4a31 48bd 3ade a23c
00000350: c39e f2bc 0824 4e3b 148e 13bb cad6 dfbb
00000360: b37f 9ebc 835e 91bc 61db a93c 7c38 04bc
00000370: 379d ae3c df1a a1bb db13 b23c fba9 3a39
00000380: 3dd0 b1bc 3442 973c 21d0 51bc e8b6 1a3d
00000390: d89e 043d 513d 413a c7a1 033d 94a8 bb3c
000003a0: 715c a3bd 951e 273d f13f 163d 2f1b 163c
000003b0: 62bf 5e3d 1db2 9dbd 7e55 5b3d 899f fbbc
000003c0: 130d 9d3d 2387 b43c eaab 30bd 7f21 9bbc
000003d0: 572d 53bd 28ca 61bc 6875 d13c c278 b9bb
000003e0: 0940 f9bb 3090 db3c c63f 0c3d 61e1 39bc
000003f0: 42e5 a73a b3b4 15bc 3a5a d3bc e410 003d

arith.constant2 f4 [32]
0.12552816 -0.117889985 -0.17069167 -0.11540077 -0.019771753 -0.15655498 0.18302839 0.17313623
0.09459325 -0.0030394471 -0.1160043 0.113198645 -0.1320424 -0.061320953 -0.12419921 0.0790394
-0.16223232 0.1647889 -0.09578576 -0.05770505 -0.077734955 -0.13753833 0.16594756 0.18140054
0.093744144 -0.14664398 -0.13648425 -0.1151118 -0.12680681 -0.12074195 -0.1015086 -0.1102797
00000000: 748a 003e 4e70 f1bd ccc9 2ebe 3d57 ecbd
00000010: 5ff8 a1bc f34f 20be cb6b 3b3e a04a 313e
00000020: 1bba c13d 7631 47bb aa93 edbd b1d4 e73d
00000030: 1f36 07be ae2b 7bbd 285c febd 69df a13d
00000040: 3b20 26be 6cbe 283e 532b c4bd 215c 6cbd
00000050: 8133 9fbd d9d6 0cbe 28ee 293e 10c1 393e
00000060: eefc bf3d d729 16be 87c2 0bbe bcbf ebbd
00000070: a5d9 01be 8e47 f7bd bee3 cfbd 53da e1bd

arith.constant3 f4 [32]
1.000855 1.0360205 1.0082017 1.0348383 1.0358099 1.0237205 1.0315762 1.0137477
0.9996065 1.0306864 0.9967354 1.000713 1.0067466 1.0290285 1.0291877 1.0069325
1.0181602 1.0492073 1.0207441 1.0310876 1.0343534 1.005542 1.0242198 1.0098135
1.0796629 1.0104572 1.0021602 1.0470886 1.0098767 1.0271764 1.0260442 1.0215591
00000000: 041c 803f 529c 843f c10c 813f 9575 843f
00000010: 6b95 843f 4609 833f b00a 843f 7cc2 813f
00000020: 36e6 7f3f 88ed 833f 0d2a 7f3f 5d17 803f
00000030: 13dd 803f 35b7 833f 6cbc 833f 2ae3 803f
00000040: 1353 823f 6d4c 863f bea7 823f aefa 833f
00000050: b165 843f 9ab5 803f a219 833f 9241 813f
00000060: 6532 8a3f a956 813f c946 803f 0007 863f
00000070: a443 813f 847a 833f 6b55 833f 73c2 823f

arith.constant4 f4 [64]
-0.014230952 -0.0010613061 0.108086206 -0.010155242 -0.02703887 0.0017302957 -0.013198534 -0.006144395
0.19347723 -0.032773696 -0.0034794805 -0.013288428 -0.017651066 -0.14226322 -0.032351926 -0.08171952
0.14458166 0.010654468 0.09519721 -0.012347032 -0.010931777 0.038096204 0.042029865 -0.022025906
0.005267879 -0.047665697 0.0010249297 -0.013189626 0.0053485623 -0.13543682 0.18104161 -0.024990985
0.0013588521 -0.011177017 0.06933367 -0.08691445 -0.028911978 -0.017311694 0.13837379 -0.009301423
-0.02467917 -0.11210542 -0.009624724 -0.01310908 -0.12446462 -0.020627348 -0.0062195 -0.016791428
0.01968653 0.10642775 0.0010967002 -0.022995815 0.016869275 -0.011950757 -0.010970277 0.19963934
-0.0015489276 -0.017932307 0.057789635 0.14016615 -0.0083904285 -0.018862983 -0.02704959 -0.04309702
00000000: f028 69bc 861b 8bba 4d5c dd3d 2c62 26bc
00000010: 9f80 ddbc 17cb e23a aa3e 58bc ec56 c9bb
00000020: e51e 463e b63d 06bd ff07 64bb b5b7 59bc
00000030: f898 90bc 73ad 11be 7483 04bd 905c a7bd
00000040: 370d 143e 1490 2e3c c1f6 c23d 354b 4abc
00000050: 321b 33bc c40a 1c3d 8227 2c3d ac6f b4bc
00000060: 2c9e ac3b 1b3d 43bd ef56 863a 4d19 58bc
00000070: fe42 af3b f3af 0abe f962 393e e5b9 ccbc
00000080: 831b b23a cf1f 37bc d0fe 8d3d 3400 b2bd
00000090: d0d8 ecbc 41d1 8dbc dcb1 0d3e ff64 18bc
000000a0: f92b cabc 8797 e5bd 05b1 1dbc 77c7 56bc
000000b0: 4fe7 febd affa a8bc f3cc cbbb 2d8e 89bc
000000c0: a545 a13c cbf6 d93d 27bf 8f3a b861 bcbc
000000d0: 6f31 8a3c 1ccd 43bc adbc 33bc 416e 4c3e
000000e0: 6305 cbba c6e6 92bc d3b4 6c3d b787 0f3e
000000f0: 0278 09bc 8b86 9abc 1a97 ddbc 8086 30bd

arith.constant5 f4 [64]
0.9914358 0.99748844 1.2454367 0.9996067 1.0663424 1.0077442 0.9897811 0.9962823
1.1368521 1.0139314 1.1917304 0.99027646 0.9987427 1.0046948 1.2716175 1.0320553
1.131498 1.0233551 1.0768563 1.0155549 1.0006076 1.14234 1.1096133 1.0126805
1.0500051 1.0163578 1.0131918 1.0147952 1.0135134 1.0268595 1.0610175 1.0089035
1.075286 1.0092016 1.0182965 1.0097202 1.0244209 0.9981715 1.1748773 1.0149873
0.98788905 1.0249841 0.99547124 0.98646575 1.0721753 1.1442264 1.0345209 1.0213548
1.1731559 1.0963356 1.0126119 1.0722836 1.0777996 1.0062828 1.0115244 1.2043284
1.1163551 0.9908482 1.316131 1.1016319 1.211821 0.98838943 1.0366479 0.9949225
00000000: bdce 7d3f 675b 7f3f 786a 9f3f 3ae6 7f3f
00000010: e87d 883f c3fd 803f 4b62 7d3f 5b0c 7f3f
00000020: 5f84 913f 81c8 813f 9f8a 983f c282 7d3f
00000030: 9aad 7f3f d799 803f 5dc4 a23f 631a 843f
00000040: edd4 903f 4dfd 823f 6dd6 893f b4fd 813f
00000050: e913 803f 3238 923f cf07 8e3f 849f 813f
00000060: 9166 863f 0318 823f 45b0 813f cfe4 813f
00000070: cfba 813f 2270 833f 6ccf 873f c023 813f
00000080: f9a2 893f 852d 813f 8a57 823f 833e 813f
00000090: 3920 833f 2b88 7f3f 6162 963f 1beb 813f
000000a0: 4ce6 7c3f ae32 833f 34d7 7e3f 0589 7c3f
000000b0: 0a3d 893f 0376 923f 2e6b 843f c1bb 823f
000000c0: f929 963f ba54 8c3f 449d 813f 9740 893f
000000d0: 56f5 893f e0cd 803f a279 813f 6f27 9a3f
000000e0: b9e4 8e3f 3aa8 7d3f fb76 a83f 4602 8d3f
000000f0: f31c 9b3f 1707 7d3f e1b0 843f 3eb3 7e3f

arith.constant6 f4 [32]
0.12502083 -0.11832175 -0.1703748 -0.11519971 -0.019886937 -0.15675499 0.18345468 0.17320251
0.0942579 -0.0030831126 -0.1153393 0.11272686 -0.13156012 -0.06069156 -0.12466797 0.07885924
-0.16261458 0.16586524 -0.09553916 -0.057288 -0.077947825 -0.13733363 0.16624786 0.18141042
0.09373969 -0.14619923 -0.13613763 -0.11536089 -0.12652802 -0.120556034 -0.10110367 -0.11020483
00000000: 7605 003e ac52 f2bd bb76 2ebe d3ed ebbd
00000010: eee9 a2bc 6184 20be 8bdb 3b3e 005c 313e
00000020: 490a c13d 0c0e 4abb 0337 ecbd 57dd e63d
00000030: b2b7 06be b797 78bd ec51 ffbd f480 a13d
00000040: 7084 26be 94d8 293e 09aa c3bd d2a6 6abd
00000050: 1ca3 9fbd 30a1 0cbe e13c 2a3e a7c3 393e
00000060: 98fa bf3d 40b5 15be aa67 0bbe 5542 ecbd
00000070: 9090 01be 15e6 f6bd 710f cfbd 12b3 e1bd

arith.constant7 f4 [3, 3, 1, 32]
0.13061775 0.0050628763 0.035884842 -0.0053704353 -0.027105322 -0.012114276 -0.020458847 0.014332199
-0.13222784 -0.11377154 0.14405526 -0.06105163 0.14338233 0.10569877 0.083347775 0.07746238
0.0044150474 -0.0010418998 0.03632654 0.13291788 -0.13919178 0.16044736 -0.15305787 0.14560772
-0.144162 -0.000260355 -0.013377721 -0.11134756 -0.08929267 -0.004744137 0.1099815 0.17236347
0.08628044 0.02040414 -0.036655355 0.08128904 0.078096904 -0.20282638 0.022475628 0.042595424
0.045129366 -0.13285127 0.0022288742 -0.08204801 -0.03393202 -0.026962345 -0.11841915 0.036033217
0.07892017 0.10218763 -0.06088563 0.09238639 0.011672741 -0.11605041 0.027358798 0.025221316
0.22330038 0.13268758 0.016093588 0.11294422 -0.03596595 0.019044552 -0.037906382 -0.055148434
0.08494093 -0.19128406 0.021979155 -0.096942 0.1703584 0.10025054 0.008893367 0.005673061
0.038511667 0.07663871 -0.11644465 -0.021627225 -0.023729749 0.13589916 0.07178601 0.11195917
-0.13028388 -0.10717138 0.22229463 0.17998055 -0.015136291 0.13342865 0.10428697 -0.08208244
-0.028421875 -0.012596373 -0.09127521 0.009987069 0.10775549 -0.10773953 0.05331029 -0.16790947
0.023015367 -0.007896481 -0.03433314 -0.02884119 0.04186226 -0.047481738 0.02692612 -0.008248073
-0.11097225 0.19410962 0.08956397 -0.09735501 0.0430157 -0.030032272 0.052890714 0.040054057
-0.021784319 0.117965005 0.10350865 -0.05950678 -0.1896753 -0.05605218 -0.14878033 -0.117989436
-0.14389005 -0.12156524 0.054576207 0.13282466 -0.03353527 0.051230013 -0.16578098 -0.050916977
-0.09217042 0.00053105055 -0.063490525 0.17591406 -0.16182598 0.15667993 -0.029424591 0.11598792
-0.14801231 -0.14228484 0.0918757 0.10127014 0.060290836 -0.021597985 -0.16368632 0.10409907
0.003661535 -0.20392218 0.009137349 0.17501204 0.044947382 0.0782395 0.009199048 0.0038708108
0.22603287 -0.0064595523 0.13610858 -0.028367823 -0.008165148 -0.011372786 0.08185418 -0.06522128
-0.08312232 -0.0007230726 -0.118849084 -0.07913039 0.044689562 0.04331019 0.052039854 -0.13356252
-0.03631876 -0.002197827 -0.138009 0.03461512 -0.10294494 -0.0053200885 -0.09714047 -0.07480523
0.006648615 -0.05725979 -0.03789723 0.01714571 0.009281163 0.13174057 0.09909817 0.014563536
-0.033286635 0.038796756 -0.01936704 -0.10557666 -0.17949314 0.0613077 -0.18447329 -0.00619949
-0.028764814 0.021984128 0.0393312 0.004253341 -0.02488147 -0.040245824 0.064550996 -0.045428023
-0.13605283 0.15672463 0.009674058 -0.08922903 -0.019155078 -0.005215487 -0.09739511 0.004194539
0.0009184924 -0.0029407158 0.090881236 -0.111882254 0.19439526 -0.020482909 -0.09150468 -0.09516986
-0.06470735 -0.15203139 -0.09129434 -0.034223136 -0.036113814 -0.012483782 -0.11700349 -0.024646265
-0.093569554 -0.14727677 0.16470967 0.14182776 0.03743541 0.18794867 -0.018748539 -0.08075327
-0.104556225 0.013338508 0.017070347 -0.08021499 0.08135816 0.006343894 0.059023496 -0.09865835
0.018712176 0.11963226 -0.13595024 0.041492984 -0.013662949 0.051071774 0.12192857 0.09380428
0.13519494 -0.09944521 -0.028488927 -0.012864754 -0.0246816 0.19087377 0.028502924 -0.010621361
00000000: a9c0 053e 7ce6 a53b fcfb 123d 7afa afbb
00000010: fb0b debc f57a 46bc 5099 a7bc 99d1 6a3c
00000020: bc66 07be 0e01 e9bd 3983 133e 4611 7abd
00000030: d1d2 123e 9978 d83d 3db2 aa3d 99a4 9e3d
00000040: 1aac 903b 5b90 88ba 23cb 143d a01b 083e
00000050: 4a88 0ebe 504c 243e 34bb 1cbe 311a 153e
00000060: 349f 13be 4280 88b9 3b2e 5bbc 310a e4bd
00000070: 13df b6bd b574 9bbb fb3d e13d 0d80 303e
00000080: cdb3 b03d 9526 a73c ed23 16bd de7a a63d
00000090: 45f1 9f3d b8b1 4fbe cf1e b83c 8a78 2e3d
000000a0: 92d9 383d 2a0a 08be 4e12 123b c908 a8bd
000000b0: 4dfc 0abd 23e0 dcbc bd85 f2bd 9197 133d
000000c0: e6a0 a13d c047 d13d 3663 79bd 1335 bd3d
000000d0: 063f 3f3c d6ab edbd 8f1f e03c ef9c ce3c
000000e0: dba8 643e 41df 073e b3d6 833c 4d4f e73d
000000f0: 0851 13bd 5203 9c3c b943 1bbd 53e3 61bd
00000100: 83f5 ad3d f8df 43be a10d b43c 8789 c6bd
00000110: 6f72 2e3e 2850 cd3d 7cb5 113c 16e5 b93b
00000120: 69be 1d3d c2f4 9c3d 887a eebd 942b b1bc
00000130: e464 c2bc 2629 0b3e 8b04 933d d94a e53d
00000140: 2369 05be ab7c dbbd 34a1 633e d24c 383e
00000150: 35fe 77bc 85a1 083e 6894 d53d d71a a8bd
00000160: fed4 e8bc 0561 4ebc 7fee babd cea0 233c
00000170: e9ae dc3d 8ba6 dcbd e45b 5a3d 76f0 2bbe
00000180: b98a bc3c 3e60 01bc e8a0 0cbd 5c44 ecbc
00000190: c377 2b3d 367c 42bd 2b94 dc3c ed22 07bc
000001a0: 6b45 e3bd acc4 463e 516d b73d 1062 c7bd
000001b0: 3b31 303d 3d06 f6bc efa3 583d b90f 243d
000001c0: 0775 b2bc a397 f13d 58fc d33d 62bd 73bd
000001d0: 3e3a 42be f896 65bd df59 18be 72a4 f1bd
000001e0: ea57 13be 32f7 f8bd 4d8b 5f3d 3003 083e
000001f0: 475c 09bd 90d6 513d 7dc2 29be 528e 50bd
00000200: d8c3 bcbd 3336 0b3a 5207 82bd d122 343e
00000210: b6b5 25be b470 203e d70b f1bc 138b ed3d
00000220: 8a90 17be 1eb3 11be 5429 bc3d b866 cf3d
00000230: 86f3 763d 42ee b0bc 639d 27be e531 d53d
00000240: 5df6 6f3b fad0 50be d2b4 153c 5b36 333e
00000250: bf1a 383d 083c a03d 9bb7 163c 6ead 7d3b
00000260: 2975 673e a7aa d3bb 0c60 0b3e a363 e8bc
00000270: 1dc7 05bc ec54 3abc 2aa3 a73d bc92 85bd
00000280: 093c aabd 958c 3dba 2667 f3bd 1d0f a2bd
00000290: 670c 373d 0766 313d be27 553d 9dc4 08be
000002a0: fbc2 14bd 6b09 10bb 3b52 0dbe 96c8 0d3d
000002b0: ccd4 d2bd 2354 aebb 95f1 c6bd 7c33 99bd
000002c0: a0dc d93b 3e89 6abd 203a 1bbd 2975 8c3c
000002d0: 0510 183c 00e7 063e fbf3 ca3d e69b 6e3c
000002e0: 9157 08bd 59e9 1e3d a0a7 9ebc 9338 d8bd
000002f0: 0dcd 37be c81d 7b3d 91e6 3cbe 1725 cbbb
00000300: 30a4 ebbc 0f18 b43c c119 213d 9c5f 8b3b
00000310: 39d4 cbbc ced8 24bd 5033 843d bc12 3abd
00000320: 6f51 0bbe 6c7c 203e f17f 1e3c b6bd b6bd
00000330: 1ceb 9cbc ade6 aabb 1677 c7bd 5872 893b
00000340: fbc6 703a 06b9 40bb f11f ba3d 8622 e5bd
00000350: 8d0f 473e c6cb a7bc ce66 bbbd 6ae8 c2bd
00000360: 4a85 84bd 1eae 1bbe 87f8 babd 8f2d 0cbd
00000370: 14ec 13bd c788 4cbc 879f efbd f7e6 c9bc
00000380: 65a1 bfbd b9cf 16be a7a9 283e 4c3b 113e
00000390: df55 193d 9e75 403e 8996 99bc f861 a5bd
000003a0: 9321 d6bd c289 5a3c 1dd7 8b3c c247 a4bd
000003b0: 1b9f a63d 71e0 cf3b 9fc2 713d 640d cabd
000003c0: 474a 993c c201 f53d 8a36 0bbe 8cf4 293d
000003d0: 90da 5fbc a330 513d b0b5 f93d 751c c03d
000003e0: 8b70 0a3e eea9 cbbd 9c61 e9bc b0c6 52bc
000003f0: 1131 cabc 6a74 433e f77e e93c 3805 2ebc

arith.constant8 f4 [64]
-0.014232749 -0.0010810408 0.11322158 -0.010210532 -0.027441377 0.0016655523 -0.013214956 -0.006160995
0.19683157 -0.0326361 -0.0032242301 -0.013298022 -0.017637435 -0.14230858 -0.034264866 -0.08183872
0.14689012 0.010517333 0.09602953 -0.0123399645 -0.010948843 0.038542897 0.042507414 -0.02198926
0.005023717 -0.04734187 0.0010097069 -0.013182191 0.0052798674 -0.13546188 0.18173093 -0.02492316
0.0015603374 -0.011198139 0.06911645 -0.08695009 -0.028916467 -0.01727801 0.14214031 -0.009325177
-0.024595397 -0.11243396 -0.0095926635 -0.013127276 -0.12535487 -0.021596756 -0.0062737274 -0.016755471
0.018367864 0.107020445 0.0010267657 -0.022649838 0.016868329 -0.011953189 -0.010973977 0.20616515
-0.0009293575 -0.017900554 0.0642858 0.14242749 -0.008555484 -0.018821461 -0.026932154 -0.04286777
00000000: 7a30 69bc b6b1 8dba b7e0 e73d 134a 27bc
00000010: bdcc e0bc a94e da3a 8b83 58bc 2ce2 c9bb
00000020: 378e 493e 6ead 05bd 9b4d 53bb f2df 59bc
00000030: 627c 90bc 57b9 11be 5159 0cbd 0f9b a7bd
00000040: 5d6a 163e e450 2c3c 21ab c43d 902d 4abc
00000050: c762 33bc 28df 1d3d 411c 2e3d d222 b4bc
00000060: fe9d a43b 8ce9 41bd 2458 843a 1efa 57bc
00000070: bd02 ad3b 85b6 0abe ac17 3a3e a82b ccbc
00000080: 3c84 cc3a 6678 37bc ed8c 8d3d e412 b2bd
00000090: 3ae2 ecbc 9d8a 8dbc 3b8d 113e a1c8 18bc
000000a0: 497c c9bc c743 e6bd 8c2a 1dbc c913 57bc
000000b0: 075d 00be aeeb b0bc d793 cdbb c542 89bc
000000c0: 3478 963c 892d db3d 8a94 863a 278c b9bc
000000d0: 732f 8a3c 4fd7 43bc 32cc 33bc f51c 533e
000000e0: 20a0 73ba 2fa4 92bc 46a8 833d 83d8 113e
000000f0: 4d2c 0cbc 772f 9abc d2a0 dcbc 1d96 2fbd

arith.constant9 f4 [3, 3, 32, 64]
0.010365786 -0.009456826 -0.047169883 0.047797576 -0.07876712 -0.017728887 0.032000948 -0.06750023
0.04001287 0.052352797 -0.010868248 0.067201145 -0.05912826 0.0056627826 -0.02305191 0.0043996456
0.093745954 -0.06919255 0.028379409 0.05525804 0.04171183 0.0077001783 0.008639569 0.036741484
-0.035204194 0.01929467 0.028599083 0.061595447 0.05444786 0.02169401 0.039383736 0.031434737
0.041168064 0.028041828 -0.010292309 -0.08599238 -0.03644773 -0.06799804 0.015849754 0.041559372
-0.05116988 -0.0897895 0.077756904 -0.059707414 0.059723172 -0.026670964 0.044737965 0.05994989
0.03214481 0.029942889 -0.016825171 -0.026335124 0.044953097 -0.05038366 0.009695269 -0.054563336
-0.032580703 0.045679644 0.00022347966 0.029772565 0.012277269 -0.048467174 -0.015852021 0.01230531
0.027704377 -0.059833962 0.11481819 -0.041290592 -0.049712032 0.06794245 -0.042187113 -0.008942346
-0.06328838 -0.0051739253 -0.045866884 0.017935844 0.055075932 -0.02066722 -0.0012751461 0.050973725
0.08363593 -0.08449848 0.02310149 0.034092583 0.028974777 -0.0044064675 0.0027436893 0.04238751
-0.042277977 0.074166 -0.049329728 -0.08415241 -0.0014135559 0.050959956 -0.086148985 0.05227508
0.027431732 -0.014786863 -0.01216891 0.015658319 -0.07865427 -0.019117644 0.068434015 -0.016654704
-0.04954552 0.04135323 0.011375423 0.003513403 -0.011892727 0.06406509 0.07388873 0.07054739
-0.04610125 -0.058544703 0.046443 0.035178795 -0.008138063 -0.052747544 0.05512512 0.0057963156
-0.07487587 0.021057885 -0.060500424 -0.09455573 0.078693844 -0.008355355 -0.01487042 0.049833424
-0.059279505 -0.0023976418 -0.12069741 0.034403898 -0.028731748 -0.06934377 0.027314344 -0.062402792
0.08536457 0.042140957 0.047723506 0.07156428 0.023482079 -0.024059862 -0.02331392 -0.0010013359
0.038701568 0.014719088 0.0669287 0.039354447 -0.045128845 -0.08320801 -0.059549965 0.024977062
-0.013291295 -0.01953006 -0.07397486 0.037742168 0.0099164955 0.06734201 0.00076217053 -0.036714036
-0.047431484 -0.030035349 -0.04137402 0.07629908 0.01587087 -0.03215391 -0.052301515 -0.06957181
0.024164423 0.0021969462 -0.06255569 0.058693234 -0.028895805 0.06919868 0.084765136 -0.0073768846
-0.052254084 0.05973008 -0.06247432 0.020599691 0.049135935 -0.054507025 -0.031486735 0.040927798
0.042466596 -0.08370224 -0.07829222 -0.00839219 -0.061700743 0.044441078 -0.130071 0.059283435
0.06548867 -0.021418568 -0.0033658773 0.09541622 -0.05557848 -0.008440537 -0.037488174 0.0021585776
0.06881118 0.048959833 0.0130786905 -0.010004629 0.072542034 0.05878484 0.03386104 0.015065198
0.061368316 -0.073103085 -0.047495868 0.04731082 0.078459956 -0.0632864 0.043199442 -0.04757916
-0.053083204 -0.04851777 -0.03809715 -0.04891263 0.048662767 0.0046455762 -0.063721046 -0.0050745043
-0.008309082 0.07240998 -0.0608381 0.025654703 -0.047380086 -0.017848259 0.039069265 -0.029580602
0.068802156 0.0077331453 0.04427659 0.04064678 -0.01959864 -0.05621754 -0.016944718 -0.0452782
3.348088e-05 0.04137263 -0.05477005 0.08823322 -4.6976307e-05 0.02051966 -0.043584473 -0.024866465
-0.02404147 -0.021250697 -0.0011940454 0.017907983 0.10479543 0.026002029 0.046457626 0.048386984
00000000: 42d5 293c cef0 1abc 3535 41bd 64c7 433d
00000010: a850 a1bd 2c3c 91bc 6d13 033d 903d 8abd
00000020: 89e4 233d e36f 563d bc10 32bc c1a0 893d
00000030: 7930 72bd dd8e b93b 5cd7 bcbc e72a 903b
00000040: e1fd bf3d d3b4 8dbd ef7b e83c 4156 623d
00000050: 06da 2a3d c751 fc3b fb8c 0d3c 3d7e 163d
00000060: 4632 10bd db0f 9e3c a048 ea3c 824b 7c3d
00000070: b804 5f3d a3b7 b13c d750 213d b6c1 003d
00000080: d89f 283d fab7 e53c 13a1 28bc c61c b0bd
00000090: 374a 15bd 8e42 8bbd 58d7 813c 293a 2a3d
000000a0: 8297 51bd 8fe3 b7bd 033f 9f3d c38f 74bd
000000b0: 49a0 743d 117d dabc 283f 373d 048e 753d
000000c0: 47aa 033d ca4a f53c f1d4 89bc c2bc d7bc
000000d0: bd20 383d 195f 4ebd e8d8 1e3c ce7d 5fbd
000000e0: 5873 05bd 941a 3b3d dd55 6a39 98e5 f33c
000000f0: 9926 493c 8485 46bd 19dc 81bc 369c 493c
00000100: 4af4 e23c 7514 75bd cd25 eb3d 5320 29bd
00000110: d89e 4bbd 6925 8b3d 65cc 2cbd eb82 12bc
00000120: 579d 81bd 088a a9bb eade 3bbd 31ee 923c
00000130: 4d97 613d 4d4e a9bc ce22 a7ba d3c9 503d
00000140: 5149 ab3d 8a0d adbd 563f bd3c aaa4 0b3d
00000150: 835c ed3c 2164 90bb 78cf 333b 879e 2d3d
00000160: ac2b 2dbd 58e4 973d f80d 4abd 1958 acbd
00000170: 1147 b9ba 63bb 503d e16e b0bd 651e 563d
00000180: 83b8 e03c 9944 72bc 1c60 47bc e045 803c
00000190: 7d15 a1bd 9b9c 9cbc 2227 8c3d 726f 88bc
000001a0: 3ef0 4abd 0162 293d fb5f 3a3c 1f41 663b
000001b0: b6d9 42bc 8f34 833d f952 973d 267b 903d
000001c0: aad4 3cbd 92cc 6fbd 043b 3e3d a417 103d
000001d0: 8355 05bc cf0d 58bd e1ca 613d 05ef bd3b
000001e0: 8558 99bd 9681 ac3c 4bcf 77bd 6fa6 c1bd
000001f0: 3d2a a13d e6e4 08bc 10a3 73bc 221e 4c3d
00000200: 11cf 72bd c121 1dbb 3430 f7bd 1aeb 0c3d
00000210: d85e ebbc 1b04 8ebd 55c2 df3c 129a 7fbd
00000220: 9fd3 ae3d ff9b 2c3d b979 433d 4b90 923d
00000230: 7d5d c03c 3019 c5bc d5fc bebc 423f 83ba
00000240: 8985 1e3d 5428 713c ea11 893d 2132 213d
00000250: 06d9 38bd f668 aabd aaea 73bd b29c cc3c
00000260: bbc3 59bc 81fd 9fbc 2280 97bd 8897 1a3d
00000270: cc78 223c 9cea 893d 66cc 473a 7561 16bd
00000280: 8447 42bd b10c f6bc ce77 29bd b142 9c3d
00000290: a003 823c d1b3 03bd 1d3a 56bd aa7b 8ebd
000002a0: 78f4 c53c a4fa 0f3b 331d 80bd 5168 703d
000002b0: e5b6 ecbc 0ab8 8d3d 5899 ad3d cbb9 f1bb
000002c0: 6108 56bd 87a7 743d 13e5 7fbd afc0 a83c
000002d0: c342 493d c242 5fbd 3cf8 00bd e8a3 273d
000002e0: 74f1 2d3d 146c abbd ac57 a0bd 657f 09bc
000002f0: ebb9 7cbd d907 363d 5531 05be 30d3 723d
00000300: ec1e 863d fe75 afbc 0d96 5cbb 9469 c33d
00000310: 43a6 63bd 2e4a 0abc 338d 19bd ec76 0d3b
00000320: e0ec 8c3d 1b8a 483d 0148 563c 75ea 23bc
00000330: eb90 943d 5fc8 703d e0b1 0a3d 05d4 763c
00000340: 585d 7b3d 12b7 95bd 078b 42bd fec8 413d
00000350: 9daf a03d 4d9c 81bd e6f1 303d 5ee2 42bd
00000360: c66d 59bd 92ba 46bd c20b 1cbd 9c58 48bd
00000370: 9c52 473d eb39 983b 2e80 82bd 0748 a6bb
00000380: d122 08bc af4b 943d 5f31 79bd d029 d23c
00000390: 9f11 42bd 8336 92bc 1807 203d 0553 f2bc
000003a0: 25e8 8c3d 5366 fd3b 5f5b 353d 3d7d 263d
000003b0: 548d a0bc 5d44 66bd a6cf 8abc a275 39bd
000003c0: d26d 0c38 5976 293d 8f56 60bd 9eb3 b43d
000003d0: 6d08 45b8 d918 a83c a285 32bd c2b4 cbbc
000003e0: 9ef2 c4bc f115 aebc 8481 9cba c3b3 923c
000003f0: fd9e d63d 3502 d53c 5a4a 3e3d 6e31 463d

arith.constant10 f4 [32, 8, 32]
0.0843272 0.30161 0.0018044835 0.004962152 0.00547112 0.081779055 0.13044076 0.08396473
0.12528975 0.049543265 0.07656932 0.014912869 0.12549916 0.017903723 0.011721598 -0.022374121
-0.18040667 -0.17184477 0.0059832763 -0.028772622 0.035404224 0.0011241399 -0.101299904 0.0029256686
0.0059452844 -0.03566188 0.0059693134 0.005781691 0.004410373 -0.064825855 0.0027324965 0.048062198
0.0015952663 0.0051382026 0.017829126 0.10620157 -0.052106306 -0.001163088 0.028621044 0.013150608
0.027681898 0.040969968 -0.031755354 -0.0033339902 0.013910453 0.010034053 0.009909824 0.0073459693
0.006587937 0.0485954 0.05207019 0.05013674 0.026983803 0.0059715607 0.0059987227 -0.08517053
0.0059953723 0.0040200716 -0.03344099 -0.04801426 0.0072658756 -0.019041995 -0.008048797 0.061528992
-0.009712146 0.0019963626 0.0040349374 0.011339683 0.01362337 0.045497347 -0.061285518 -0.07669304
-0.10787507 0.01625788 0.0060011228 0.022814028 0.061654255 0.053109113 0.004353604 0.026960742
0.02551732 -0.0016902089 0.005981379 0.013522304 0.016023235 0.012497387 0.005986451 -0.026553467
-0.19515224 0.03500354 0.04654076 0.0033654072 0.020004323 0.01283621 0.049650855 0.09937103
0.0059506693 0.0061838278 0.004485753 0.0047928295 -0.005213419 0.05922078 0.05419665 -0.1347897
0.0654774 0.14039409 0.0016264266 0.012432091 -0.007237358 0.023515033 0.033466604 0.027837295
0.0029752948 0.05719323 0.13541858 0.14435022 0.0058974717 0.017790165 0.031904448 0.00574217
0.0059476877 0.020146456 0.110640764 0.0017772858 0.041972328 0.02493718 0.019718474 0.041374233
0.012857445 0.0019988944 -0.18723333 0.0059806304 0.017162206 0.009964258 0.036159575 0.056020193
0.005602436 0.0059922077 -0.050356057 0.014089881 0.010094007 0.004204899 0.02891846 0.06600225
-0.006660456 0.021742653 0.019030875 0.008944529 0.005407541 0.004374269 -0.027991945 -0.09903769
0.0062864274 0.069609515 -0.057414565 -0.07217793 0.005996471 -0.008105546 -0.06509322 0.0093286205
0.0067215394 0.006860493 0.03805652 0.020925771 -0.15201837 0.0018205342 0.06744454 0.013708822
0.057723496 0.0058808723 -0.16430818 0.036938097 0.018103521 0.022165153 0.047735162 0.108946525
0.009106322 0.011761443 0.07067817 0.109695636 0.012316868 0.006000002 0.004881843 0.08136589
-0.20379625 -0.09456084 0.0068806186 0.06194506 -0.12443842 0.036699735 0.07951887 0.05170657
0.0059934477 -0.09068759 -0.030754048 0.005598622 -0.09960757 0.01694599 0.08491715 0.07722336
0.025092239 0.0040223757 -0.10496308 -0.010159579 0.0059685716 0.035161756 0.11078896 0.0059851566
0.017926095 -0.082423925 0.0012098529 -0.2122617 0.013364566 -0.04818426 0.08286439 0.011195458
-0.13929255 0.14419073 0.022616293 0.15439789 0.0059960056 0.052543994 -0.12870093 0.011629581
0.06890233 -0.2521148 -0.11639477 0.09250797 0.005360516 0.15001117 -0.020775924 0.03887606
0.09103156 0.06510712 0.004161866 0.086610526 0.03182035 0.05099108 0.021255512 0.00048492308
0.037685413 0.0062188073 0.023647841 -0.022946183 0.008274035 0.0071825865 0.043042816 0.0059931357
-0.049583886 0.008827958 0.0059946715 0.021271605 0.00714131 0.0011013709 0.0052050953 -0.15772107
00000000: bdb3 ac3d a06c 9a3e 6b84 ec3a 8c99 a23b
00000010: 1547 b33b c77b a73d 4392 053e b3f5 ab3d
00000020: f54b 003e e1ed 4a3d 60d0 9c3d 1b55 743c
00000030: da82 003e d4aa 923c f20b 403c ef49 b7bc
00000040: 87bc 38be 13f8 2fbe 5c0f c43b 90b4 ebbc
00000050: 0504 113d e057 933a 5376 cfbd 93bc 3f3b
00000060: a9d0 c23b 3112 12bd 3b9a c33b 5774 bd3b
00000070: e484 903b 6bc3 84bd af13 333b dedc 443d
00000080: 4118 d13a 5e5e a83b 630e 923c 3580 d93d
00000090: 6c6d 55bd c272 98ba ae76 ea3c a675 573c
000000a0: 26c5 e23c 20d0 273d e711 02bd 137f 5abb
000000b0: abe8 633c de65 243c d05c 223c 75b6 f03b
000000c0: 9fdf d73b f80b 473d 8d47 553d 2f5c 4d3d
000000d0: 230d dd3c 15ad c33b ef90 c43b e36d aebd
000000e0: d474 c43b ceba 833b 6bf9 08bd 9aaa 44bd
000000f0: 9516 ee3b f5fd 9bbc 1adf 03bc d305 7c3d
00000100: b11f 1fbc 68d5 023b 8237 843b 14ca 393c
00000110: 8e34 5f3c 6d5b 3a3d 8606 7bbd 3e11 9dbd
00000120: 9bed dcbd 3f2f 853c 11a5 c43b 7ce4 ba3c
00000130: 2c89 7c3d f188 593d ada8 8e3b c6dc dc3c
00000140: b309 d13c 008a ddba 72ff c33b a78c 5d3c
00000150: 2943 833c d7c1 4c3c fe29 c43b a886 d9bc
00000160: fdd5 47be df5f 0f3d 86a1 3e3d 2a8e 5c3b
00000170: 1be0 a33c f84e 523c b25e 4b3d 0a83 cb3d
00000180: d5fd c23b b5a1 ca3b 39fd 923b 2b0d 9d3b
00000190: 54d5 aabb 7d91 723d 4efd 5d3d 5006 0abe
000001a0: 0419 863d 78c3 0f3e d22d d53a f8af 4b3c
000001b0: 5c27 edbb 99a2 c03c 4714 093d 0a0b e43c
000001c0: 2afd 423b 7343 6a3d 2bab 0a3e 8bd0 133e
000001d0: 943f c13b aebc 913c 3dae 023d d028 bc3b
000001e0: d2e4 c23b 2e0a a53c a097 e23d d1f3 e83a
000001f0: 2deb 2b3d 0f49 cc3c a388 a13c 0778 293d
00000200: 08a8 523c e2ff 023b 18ba 3fbe 2af9 c33b
00000210: c197 8c3c 2141 233c 101c 143d 6e75 653d
00000220: a494 b73b 485a c43b 2742 4ebd 3fd9 663c
00000230: 5561 253c 40c9 893b 68e6 ec3c 302c 873d
00000240: f43f dabb a61d b23c a3e6 9b3c 138c 123c
00000250: be31 b13b 0756 8f3b 5d4f e5bc 46d4 cabd
00000260: 60fe cd3b 6f8f 8e3d 892b 6bbd 06d2 93bd
00000270: 0b7e c43b 20cd 04bc 984f 85bd 12d7 183c
00000280: 5c40 dc3b fdcd e03b 27e1 1b3d 866c ab3c
00000290: b4aa 1bbe fe9e ee3a 5d20 8a3d f89a 603c
000002a0: 796f 6c3d 55b4 c03b 6740 28be 674c 173d
000002b0: d64d 943c b293 b53c f285 433d 5b1f df3d
000002c0: af32 153c 11b3 403c b7bf 903d 1ba8 e03d
000002d0: b0cc 493c aa9b c43b def7 9f3b 29a3 a63d
000002e0: f7af 50be 1da9 c1bd d076 e13b 1aba 7d3d
000002f0: 92d9 febd 7652 163d cada a23d 45ca 533d
00000300: af64 c43b 6aba b9bd eaef fbbc a574 b73b
00000310: 0eff cbbd 51d2 8a3c 0be9 ad3d 4827 9e3d
00000320: 3d8e cd3c 22ce 833b e2f6 d6bd 5d74 26bc
00000330: 0294 c33b c605 103d 52e5 e23d 221f c43b
00000340: bfd9 923c e0cd a8bd ed93 9e3a 225b 59be
00000350: 0df7 5a3c dc5c 45bd ceb4 a93d 276d 373c
00000360: b5a2 0ebe bca6 133e ce45 b93c 7b1a 1e3e
00000370: 247a c43b 5f38 573d 2dca 03be 008a 3e3c
00000380: aa1c 8d3d 3115 81be 6260 eebd d274 bd3d
00000390: 44a7 af3b 879c 193e 4532 aabc 813c 1f3d
000003a0: c16e ba3d e256 853d 4360 883b dc60 b13d
000003b0: 0e56 023d 06dc 503d 0a20 ae3c 463d fe39
000003c0: 055c 1a3d 23c7 cb3b 1eb9 c13c a2f9 bbbc
000003d0: d18f 073c e75b eb3b aa4d 303d 1162 c43b
000003e0: 7918 4bbd 24a3 103c f36e c43b ca41 ae3c
000003f0: a601 ea3b e05b 903a 818f aa3b a281 21be

arith.constant11 f4 [16, 8, 64]
0.0004885359 0.0150561705 0.0047756885 0.01641568 -0.0034247136 0.06723821 0.026434263 0.005998227
-0.031591307 0.08743631 -0.029054789 0.00598769 0.007360889 0.0008277006 0.00466818 -0.0041854745
0.00600351 0.00820468 0.0060037533 0.005498758 0.011162671 0.0059897606 0.0060038012 0.021990929
0.0021284162 0.004575382 0.029868957 -0.034138687 0.011985342 0.00012927815 -0.0059567257 0.015031334
-0.0040401667 0.005998455 0.0059935437 0.007191583 0.1339549 0.0022834109 0.018495524 0.023263212
0.0018264344 0.005991132 0.0009823198 0.018559977 0.005802114 0.006704679 0.01307419 0.0059919064
-0.0027630136 0.0060030827 -0.004623475 -0.01286381 0.016049478 0.015826417 0.005998044 0.0013222359
0.023096025 0.044372115 -0.0138883935 0.047842696 -0.00046753164 -0.037780106 0.0015218771 0.018954325
0.005997342 0.006494562 0.006001951 0.005944747 0.005084268 0.01160498 0.011688326 0.015149615
-0.004387596 0.011159473 0.00884466 0.0059304456 0.021798797 -0.0015624283 0.0042289672 0.0059999605
0.0060830847 -0.0075693107 0.0057261256 0.026573444 0.005900608 0.00700703 0.0059522595 0.024584884
-0.0045200223 0.005378304 0.00078877166 0.0033066827 0.0052279527 0.004072527 0.0066409907 -0.10676905
0.0052494947 0.012146241 0.005471762 0.029970622 0.0045985216 -0.026735896 0.006004201 0.0015912952
0.0009473509 0.006989757 0.00525581 -0.022313895 0.0032807782 0.024316572 0.003828119 0.008751366
0.00916007 0.0019037676 0.0060011684 0.0059570204 0.04815533 -0.03514478 -0.00336785 0.0059957197
0.009531223 0.031242596 0.00498575 0.011851754 0.018445361 0.010754258 0.005996051 0.00016997033
0.005992471 0.039372344 0.006003704 0.0058931606 0.009789188 0.0028264092 0.0018772136 0.031364556
0.008668176 0.015050015 0.006002043 0.009000387 -0.0039417744 -0.005777566 0.018165208 -0.012489593
0.029789854 0.010130001 0.018833525 0.005962896 0.005984901 0.012692815 0.012868154 -0.013201479
0.005997857 0.020842941 -0.019520845 -0.0085655255 0.0060024075 0.0058744196 0.0101074865 0.11352693
0.008289305 -0.016915526 0.009889479 0.0063610054 0.005992023 0.006155686 0.0017106114 0.03433056
0.0018414896 0.005855117 0.005377828 0.019467453 0.005999612 0.035245523 -0.036844842 0.016178716
-0.01415217 0.0005730295 0.023438027 0.030382697 0.005758316 0.009266943 -0.039801713 0.0015086038
0.0043142107 0.02576314 0.05442021 0.018978534 -0.0019223845 0.040647153 -0.004885186 0.14203759
-0.020788241 0.00067274645 0.006001626 0.005961216 -0.01780674 -0.055092424 0.005947374 0.05565424
-0.022794038 0.0059190094 0.005998912 0.0018657222 -0.07733433 0.015040547 -0.027771404 -0.00016126597
0.0059537007 0.024772901 -0.08145845 -0.030063314 -0.013866713 -0.019209037 0.0035939692 0.033521194
0.020035194 -0.003882147 0.005302735 0.021287499 0.042795006 -0.004512745 0.016502747 0.06620614
0.0053119203 -0.002973879 -0.004501283 0.010417784 0.039063364 0.11110644 0.00600407 0.0016328909
0.049511384 -0.024646884 0.005960276 0.021764671 0.006004234 -0.004649796 0.0059341537 -0.09398966
0.0052232393 -0.007587493 0.014460123 -0.097740725 -0.006612799 0.0059799533 -0.00020524794 0.022621086
0.005122384 0.008637737 0.011128904 -0.011062591 0.015395039 0.025665646 0.02527787 0.020322682
00000000: 1711 003a 28ae 763c 617d 9c3b 2d7a 863c
00000010: 2971 60bb 30b4 893d ab8c d83c c68c c43b
00000020: e365 01bd cf11 b33d 4f04 eebc 6234 c43b
00000030: 9d33 f13b 0cfa 583a 88f7 983b 4e26 89bb
00000040: 18b9 c43b ec6c 063c 22bb c43b ed2e b43b
00000050: a3e3 363c c145 c43b 89bb c43b 5226 b43c
00000060: e67c 0b3b 16ed 953b beaf f43c 02d5 0bbd
00000070: 2b5e 443c d78e 0739 a330 c3bb fc45 763c
00000080: 6063 84bb b08e c43b 7d65 c43b 5fa7 eb3b
00000090: 792b 093e 47a5 153b ed83 973c 7e92 be3c
000000a0: f864 ef3a 4251 c43b 2fc1 803a 180b 983c
000000b0: a91f be3b edb2 db3b 2135 563c c157 c43b
000000c0: ad13 35bb 82b5 c43b 8580 97bb bbc2 52bc
000000d0: 327a 833c 67a6 813c 3d8b c43b e04e ad3a
000000e0: e033 bd3c 89bf 353d 258c 63bc b4f6 433d
000000f0: 091f f5b9 50bf 1abd b979 c73a 1a46 9b3c
00000100: 5a85 c43b 56d0 d43b 04ac c43b 27cc c23b
00000110: ee99 a63b d022 3e3c 6480 3f3c 1736 783c
00000120: d3c5 8fbb 39d6 363c 31e9 103c 2f54 c23b
00000130: 6493 b23c 65ca ccba 2693 8a3b 519b c43b
00000140: 9d54 c73b fb07 f8bb 39a2 bb3b 8db0 d93c
00000150: e359 c13b 3a9b e53b 2c0b c33b 3d66 c93c
00000160: b21c 94bb 7c3c b03b 92c5 4e3a eeb4 583b
00000170: 3f4f ab3b d572 853b ab9c d93b bba9 dabd
00000180: f403 ac3b 0701 473c 774c b33b f384 f53c
00000190: 32af 963b 3d05 dbbc e3be c43b 0293 d03a
000001a0: a557 783a 550a e53b ee38 ac3b a1cb b6bc
000001b0: 5302 573b 8c33 c73c 2ee1 7a3b e461 0f3c
000001c0: 1e14 163c d787 f93a 73a5 c43b 1c33 c33b
000001d0: 863e 453d f9f3 0fbd 26b7 5cbb be77 c43b
000001e0: d928 1c3c 79f0 ff3c 815f a33b dc2d 423c
000001f0: ba1a 973c a132 303c 857a c43b 103a 3239
00000200: 7d5c c43b e544 213d b8ba c43b 6a1b c13b
00000210: d562 203c 473b 393b d60c f63a 1f78 003d
00000220: f704 0e3c 5794 763c c9ac c43b 5c76 133c
00000230: 002a 81bb bd51 bdbb 34cf 943c 26a1 4cbc
00000240: da09 f43c 4ef8 253c c448 9a3c 6664 c33b
00000250: fd1c c43b 86f5 4f3c f3d4 523c 044b 58bc
00000260: ac89 c43b d1be aa3c 2eea 9fbc 6b56 0cbc
00000270: d8af c43b 347e c03b df99 253c cf80 e83d
00000280: ddcf 073c 6e92 8abc 7b07 223c fb6f d03b
00000290: bb58 c43b a3b5 c93b 9836 e03a 349e 0c3d
000002a0: 235e f13a 48dc bf3b 7e38 b03b 357a 9f3c
000002b0: 6598 c43b 9c5d 103d 9eea 16bd 3a89 843c
000002c0: 81de 67bc 5c37 163a 1b01 c03c 22e5 f83c
000002d0: 41b0 bc3b 60d4 173c 1f07 23bd 58bc c53a
000002e0: 395e 8d3b 380d d33c bae7 5e3d df78 9b3c
000002f0: 85f8 fbba a17d 263d e913 a0bb 4d72 113e
00000300: 1a4c aabc 405b 303a 4aa9 c43b 4e56 c33b
00000310: 71df 91bc 98a8 61bd 30e2 c23b b3f5 633d
00000320: 90ba babc 40f4 c13b 8592 c43b 408b f43a
00000330: 7661 9ebd a06c 763c db80 e3bc 8119 29b9
00000340: 4317 c33b 8af0 ca3c b0d3 a6bd 5747 f6bc
00000350: 3631 63bc 455c 9dbc cc88 6b3b 854d 093d
00000360: d920 a43c 9e6b 7ebb 91c2 ad3b 1f63 ae3c
00000370: d149 2f3d a6df 93bb c530 873c 1697 873d
00000380: 9e0f ae3b 69e5 42bb 807f 93bb 5aaf 2a3c
00000390: e800 203d c68b e33d cabd c43b ba06 d63a
000003a0: 73cc 4a3d 43e8 c9bc 6b4e c33b d34b b23c
000003b0: 2abf c43b 515d 98bb 4a73 c23b a77d c0bd
000003c0: b527 ab3b 81a0 f8bb 27ea 6c3c 4a2c c8bd
000003d0: 2eb0 d8bb 7cf3 c33b d337 57b9 db4f b93c
000003e0: acd9 a73b 4b85 0d3c 0256 363c df3f 35bc
000003f0: 793b 7c3c c340 d23c 8913 cf3c c17b a63c

arith.constant12 f4 [8]
2.9396495e-05 8.992505e-05 -0.0003894873 -0.00013497671 -2.1992744e-05 0.00018744917 0.00012252631 0.0001171613
00000000: 7e98 f637 2596 bc38 1a34 ccb9 8988 0db9
00000010: 0f7d b8b7 018e 4439 687a 0039 7eb4 f538

arith.constant13 f4 [8]
0.00021807209 1.2434712e-05 0.00015498132 0.00010475788 7.852057e-05 2.9719778e-05 0.000115819435 5.618788e-05
00000000: 48aa 6439 ae9e 5037 7b82 2239 75b1 db38
00000010: 69ab a438 bd4e f937 16e4 f238 47ab 6b38
